training_quantization/models/gate_navigator_model.tflite (tflite, 31680 bytes, 9 tensors)

model/quant_conv2d_3/Conv2D;model/quant_conv2d_3/LastValueQuant/FakeQuantWithMinMaxVarsPerChannel i1 [4, 3, 3, 1]
000000 d4 81 d7 11 e0 3b 24 07 22 ee 2b 24 26 f0 1b f4
       -44 -127 -41 17 -32 59 36 7 34 -18 43 36 38 -16 27 -12
000010 e6 81 06 12 dc 0e f7 81 20 f5 10 c4 e3 2d a3 95
       -26 -127 6 18 -36 14 -9 -127 32 -11 16 -60 -29 45 -93 -107
000020 34 df 81 cc
       52 -33 -127 -52

model/quant_conv2d/Conv2D;model/quant_conv2d/LastValueQuant/FakeQuantWithMinMaxVarsPerChannel i1 [4, 5, 5, 1]
000000 d3 f6 cc db d4 ec c6 e8 c8 db 1a 22 6d 2b 1e b4
       -45 -10 -52 -37 -44 -20 -58 -24 -56 -37 26 34 109 43 30 -76
000010 ad de be b3 bd b6 f5 da 81 f5 22 5e 7b 29 b9 99
       -83 -34 -66 -77 -67 -74 -11 -38 -127 -11 34 94 123 41 -71 -103
000020 f2 38 13 b4 8f c1 02 06 15 ba b0 c0 21 7f 15 ce
       -14 56 19 -76 -113 -63 2 6 21 -70 -80 -64 33 127 21 -50
000030 00 39 40 12 1f 4b 4f 5e 4f 24 58 74 29 06 01 e7
       0 57 64 18 31 75 79 94 79 36 88 116 41 6 1 -25
000040 16 f5 01 a4 c2 bc d6 aa 8d 8a 81 c6 9f 91 a9 89
       22 -11 1 -92 -62 -68 -42 -86 -115 -118 -127 -58 -97 -111 -87 -119
000050 b1 be c1 ca c5 de e1 09 08 fd 35 3a 4d 7f 23 53
       -79 -66 -63 -54 -59 -34 -31 9 8 -3 53 58 77 127 35 83
000060 5b 70 63 35
       91 112 99 53

model/quant_conv2d_1/Conv2D;model/quant_conv2d_1/LastValueQuant/FakeQuantWithMinMaxVarsPerChannel i1 [4, 3, 3, 4]
000000 bc d5 ed 29 c4 b5 cb 28 ad e1 e3 e8 04 e4 17 48
       -68 -43 -19 41 -60 -75 -53 40 -83 -31 -29 -24 4 -28 23 72
000010 1a 81 10 74 d0 91 2a 30 03 cf fb 3d 44 a2 0a 25
       26 -127 16 116 -48 -111 42 48 3 -49 -5 61 68 -94 10 37
000020 f7 d4 0d 3b 3c ed ff f6 8f 3f 4b 22 af 50 48 7f
       -9 -44 13 59 60 -19 -1 -10 -113 63 75 34 -81 80 72 127
000030 2e 09 c7 dc ac 14 38 24 d9 26 01 55 3c c1 db cc
       46 9 -57 -36 -84 20 56 36 -39 38 1 85 60 -63 -37 -52
000040 3e c4 dc da 4a bc e3 cd 3c ee cc a2 1c 00 da b7
       62 -60 -36 -38 74 -68 -29 -51 60 -18 -52 -94 28 0 -38 -73
000050 08 17 eb ed 25 d0 26 04 02 cd 0d c8 0f db 10 ff
       8 23 -21 -19 37 -48 38 4 2 -51 13 -56 15 -37 16 -1
000060 ed 01 ba b3 d7 e7 c2 81 d0 10 a9 88 0b ff 1e 16
       -19 1 -70 -77 -41 -25 -62 -127 -48 16 -87 -120 11 -1 30 22
000070 46 18 07 1c 50 fa ed dc be 2e 5c 46 b9 44 50 5a
       70 24 7 28 80 -6 -19 -36 -66 46 92 70 -71 68 80 90
000080 fa 27 0b 0e 81 44 44 31 af 31 43 4e 03 07 03 11
       -6 39 11 14 -127 68 68 49 -81 49 67 78 3 7 3 17

model/quant_conv2d_2/Conv2D;model/quant_conv2d_2/LastValueQuant/FakeQuantWithMinMaxVarsPerChannel i1 [4, 3, 3, 4]
000000 f7 36 85 4c cc 04 01 2f 15 b0 99 11 20 dd 52 bf
       -9 54 -123 76 -52 4 1 47 21 -80 -103 17 32 -35 82 -65
000010 f1 0a 0a bb 9d 48 ac 7f eb bb 49 e9 5e f0 3a e6
       -15 10 10 -69 -99 72 -84 127 -21 -69 73 -23 94 -16 58 -26
000020 5f 34 f0 ab 26 fd e2 d8 f9 ca 1b 25 1d 2f e5 f6
       95 52 -16 -85 38 -3 -30 -40 -7 -54 27 37 29 47 -27 -10
000030 58 f2 3d 81 c1 26 86 6f ab d7 26 08 ff ac 56 f7
       88 -14 61 -127 -63 38 -122 111 -85 -41 38 8 -1 -84 86 -9
000040 13 47 e3 bb dd fd da 3c b9 39 ca 4f ff ed fb 2b
       19 71 -29 -69 -35 -3 -38 60 -71 57 -54 79 -1 -19 -5 43
000050 31 db 0f 9b c5 44 f2 37 3c 81 e3 b6 05 1a 3a 0a
       49 -37 15 -101 -59 68 -14 55 60 -127 -29 -74 5 26 58 10
000060 46 f0 07 cb e3 ef 02 28 f3 ff 14 f1 0f 06 3c 05
       70 -16 7 -53 -29 -17 2 40 -13 -1 20 -15 15 6 60 5
000070 3d ed 2d b7 17 d9 63 c1 71 09 bf b1 e8 c6 a2 17
       61 -19 45 -73 23 -39 99 -63 113 9 -65 -79 -24 -58 -94 23
000080 06 12 f3 4c f2 2c eb 3a a5 47 97 7f e0 1f 92 03
       6 18 -13 76 -14 44 -21 58 -91 71 -105 127 -32 31 -110 3

model/quant_conv2d_4/Conv2D;model/quant_conv2d_4/LastValueQuant/FakeQuantWithMinMaxVarsPerChannel i1 [16, 3, 3, 8]
000000 ba 04 c6 aa 12 8e a9 5c 08 ef bc 01 c9 f4 db 30
       -70 4 -58 -86 18 -114 -87 92 8 -17 -68 1 -55 -12 -37 48
000010 ff 15 bf 20 0d 0f 31 00 e8 45 c0 ca 18 eb 8c 3a
       -1 21 -65 32 13 15 49 0 -24 69 -64 -54 24 -21 -116 58
000020 f7 7f 94 12 f6 2f e2 fa 31 46 d4 49 fe 1b 3b ea
       -9 127 -108 18 -10 47 -30 -6 49 70 -44 73 -2 27 59 -22
000030 df 63 06 e7 0f d6 a5 ff fa 5f f8 fa d7 1a 0f fd
       -33 99 6 -25 15 -42 -91 -1 -6 95 -8 -6 -41 26 15 -3
000040 41 2a f9 43 05 1c 27 fb 33 e8 0e cb 0c 15 30 f6
       65 42 -7 67 5 28 39 -5 51 -24 14 -53 12 21 48 -10
000050 0c fe 06 f3 d6 ec 1d 30 dc fb 29 06 e6 35 c3 d0
       12 -2 6 -13 -42 -20 29 48 -36 -5 41 6 -26 53 -61 -48
000060 dd 17 8a 39 e9 81 1f d5 e9 2c c6 15 f4 9f 0c 24
       -35 23 -118 57 -23 -127 31 -43 -23 44 -58 21 -12 -97 12 36
000070 18 07 05 ec bc c1 c2 0e fa 1a 0c 29 1c dc f6 b6
       24 7 5 -20 -68 -63 -62 14 -6 26 12 41 28 -36 -10 -74
000080 06 e7 37 03 21 fb 0e d6 24 e4 1e c6 07 b8 f6 0b
       6 -25 55 3 33 -5 14 -42 36 -28 30 -58 7 -72 -10 11
000090 23 08 50 1a 4d c7 cd 14 6b cf 7f 00 2b b0 b2 0d
       35 8 80 26 77 -57 -51 20 107 -49 127 0 43 -80 -78 13
0000a0 5c e3 43 0e 27 ac 1d eb 31 f3 1b a1 c4 04 c1 fd
       92 -29 67 14 39 -84 29 -21 49 -13 27 -95 -60 4 -63 -3
0000b0 41 ae 10 9d 98 ed d2 21 57 e7 ed ed 9c d3 0d 20
       65 -82 16 -99 -104 -19 -46 33 87 -25 -19 -19 -100 -45 13 32
0000c0 43 e7 a7 f8 09 29 13 03 02 c6 87 bf ff 16 25 45
       67 -25 -89 -8 9 41 19 3 2 -58 -121 -65 -1 22 37 69
0000d0 bf dd c2 ee df 4f 33 1a 2b ed 13 f6 e0 04 19 cb
       -65 -35 -62 -18 -33 79 51 26 43 -19 19 -10 -32 4 25 -53
0000e0 2f e0 ed 18 d5 0e f6 fe 29 02 d7 40 c0 ff 1d e9
       47 -32 -19 24 -43 14 -10 -2 41 2 -41 64 -64 -1 29 -23
0000f0 2b e2 f5 dc d7 29 f9 ea 43 f0 d9 25 e6 28 c0 c8
       43 -30 -11 -36 -41 41 -7 -22 67 -16 -39 37 -26 40 -64 -56

model/quant_conv2d_5/Conv2D;model/quant_conv2d_5/LastValueQuant/FakeQuantWithMinMaxVarsPerChannel i1 [16, 3, 3, 16]
000000 dd 22 f6 1b 35 01 0b 91 e5 4b df 22 16 fd 25 eb
       -35 34 -10 27 53 1 11 -111 -27 75 -33 34 22 -3 37 -21
000010 de db f1 f1 db ec f0 d7 e2 4d dc 46 f6 03 0e f1
       -34 -37 -15 -15 -37 -20 -16 -41 -30 77 -36 70 -10 3 14 -15
000020 fa b2 e9 b4 81 0d 2a f4 0c af 50 f3 ed d9 29 c7
       -6 -78 -23 -76 -127 13 42 -12 12 -81 80 -13 -19 -39 41 -57
000030 f7 ff 36 f4 1e 0e 12 ca d1 32 0f 11 1a 13 f7 f6
       -9 -1 54 -12 30 14 18 -54 -47 50 15 17 26 19 -9 -10
000040 06 e4 06 01 e1 c3 e4 15 0b 03 ea 05 03 e8 ed 14
       6 -28 6 1 -31 -61 -28 21 11 3 -22 5 3 -24 -19 20
000050 10 dd ae 47 8e cc d7 ed 0d a3 e8 dc cc f8 19 fd
       16 -35 -82 71 -114 -52 -41 -19 13 -93 -24 -36 -52 -8 25 -3
000060 e2 ec f2 0d 2a b9 d7 fb 2e 07 f7 2a f9 0f 33 1f
       -30 -20 -14 13 42 -71 -41 -5 46 7 -9 42 -7 15 51 31
000070 ee 17 f7 cc e8 23 ee 1d f6 2b f0 09 fb 02 fd e7
       -18 23 -9 -52 -24 35 -18 29 -10 43 -16 9 -5 2 -3 -25
000080 d3 3d 0e 2f e3 02 02 dd 18 b9 4c 0d 08 0c 9e 21
       -45 61 14 47 -29 2 2 -35 24 -71 76 13 8 12 -98 33
000090 15 e9 ed ef b1 af 30 2a 0a 0b 02 18 cd f4 14 13
       21 -23 -19 -17 -79 -81 48 42 10 11 2 24 -51 -12 20 19
0000a0 30 18 14 14 f9 1c 11 ec f0 1e 03 ef cf e1 e8 2c
       48 24 20 20 -7 28 17 -20 -16 30 3 -17 -49 -31 -24 44
0000b0 3d ae 11 fa fa 34 ed 93 10 29 c6 1c e1 d7 fe ef
       61 -82 17 -6 -6 52 -19 -109 16 41 -58 28 -31 -41 -2 -17
0000c0 06 dd ef e7 25 dd 10 12 e9 27 4e 04 f8 49 dd 1f
       6 -35 -17 -25 37 -35 16 18 -23 39 78 4 -8 73 -35 31
0000d0 08 31 4d c6 38 5c 30 35 00 46 51 f7 0a 12 da 3c
       8 49 77 -58 56 92 48 53 0 70 81 -9 10 18 -38 60
0000e0 0a fc 15 d5 16 34 fe 5b e3 13 42 06 36 e4 fc 09
       10 -4 21 -43 22 52 -2 91 -29 19 66 6 54 -28 -4 9
0000f0 0b e2 df 02 57 d1 d6 19 f8 fe 04 29 16 50 c0 07
       11 -30 -33 2 87 -47 -42 25 -8 -2 4 41 22 80 -64 7

model/quant_conv2d_6/Conv2D;model/quant_conv2d_6/LastValueQuant/FakeQuantWithMinMaxVarsPerChannel i1 [32, 3, 3, 16]
000000 ce ef f9 27 06 a7 96 cb bd 7f a0 ca d1 1d 1b fd
       -50 -17 -7 39 6 -89 -106 -53 -67 127 -96 -54 -47 29 27 -3
000010 d3 28 71 45 10 c6 a1 25 f9 4d ba de f0 19 fb 22
       -45 40 113 69 16 -58 -95 37 -7 77 -70 -34 -16 25 -5 34
000020 99 24 00 db 12 ef f0 26 1a b9 0d fa 63 15 2c 16
       -103 36 0 -37 18 -17 -16 38 26 -71 13 -6 99 21 44 22
000030 4e 14 2a 24 b4 d5 fc 27 02 4d ac 0c a2 56 96 32
       78 20 42 36 -76 -43 -4 39 2 77 -84 12 -94 86 -106 50
000040 e3 1d fb 46 04 e2 f8 56 03 09 18 da eb 15 ca ee
       -29 29 -5 70 4 -30 -8 86 3 9 24 -38 -21 21 -54 -18
000050 d9 1b 29 f1 d8 e3 ff 15 0f ed bb df 0c fd 1d 3d
       -39 27 41 -15 -40 -29 -1 21 15 -19 -69 -33 12 -3 29 61
000060 30 38 e4 de 4c 15 d3 b2 29 00 ed c8 d5 4a ee f7
       48 56 -28 -34 76 21 -45 -78 41 0 -19 -56 -43 74 -18 -9
000070 03 30 f7 f3 54 0e d2 c3 f4 c2 18 df 08 1b db db
       3 48 -9 -13 84 14 -46 -61 -12 -62 24 -33 8 27 -37 -37
000080 e4 0b 21 b6 05 07 0f c6 e4 cd ab e3 ff ed db d2
       -28 11 33 -74 5 7 15 -58 -28 -51 -85 -29 -1 -19 -37 -46
000090 f6 07 49 11 ee 32 e6 12 c9 f8 19 3f fd f4 22 4c
       -10 7 73 17 -18 50 -26 18 -55 -8 25 63 -3 -12 34 76
0000a0 12 fc 04 e7 1a d5 2d d2 2e d9 1f 0a 47 0a f1 18
       18 -4 4 -25 26 -43 45 -46 46 -39 31 10 71 10 -15 24
0000b0 2a f2 d9 04 3a dc 13 b1 7f 03 07 ff 6b f8 4e c4
       42 -14 -39 4 58 -36 19 -79 127 3 7 -1 107 -8 78 -60
0000c0 20 07 ff bd 22 eb 3f e7 eb 28 f8 ea df fc d7 cf
       32 7 -1 -67 34 -21 63 -25 -21 40 -8 -22 -33 -4 -41 -49
0000d0 2a 12 c0 96 c9 94 15 0e e4 b0 c3 c1 3b f2 17 3c
       42 18 -64 -106 -55 -108 21 14 -28 -80 -61 -63 59 -14 23 60
0000e0 4d fe 2b 17 ad dd 04 3c 1d c0 c8 ba 19 e7 fa e6
       77 -2 43 23 -83 -35 4 60 29 -64 -56 -70 25 -25 -6 -26
0000f0 ff 40 f7 f9 d8 16 18 db 32 db ee 33 c8 3c 2f d7
       -1 64 -9 -7 -40 22 24 -37 50 -37 -18 51 -56 60 47 -41

model/quant_conv2d_7/Conv2D;model/quant_conv2d_7/LastValueQuant/FakeQuantWithMinMaxVarsPerChannel i1 [32, 3, 3, 32]
000000 fb f9 1d 1f 26 a8 d4 23 14 35 ee da 01 07 1e 05
       -5 -7 29 31 38 -88 -44 35 20 53 -18 -38 1 7 30 5
000010 25 13 1c de 29 d8 c4 d8 f8 e8 08 c6 07 d9 0d ef
       37 19 28 -34 41 -40 -60 -40 -8 -24 8 -58 7 -39 13 -17
000020 1d e8 2e 05 fa fa aa ee 29 f8 c8 16 f0 bf fb f4
       29 -24 46 5 -6 -6 -86 -18 41 -8 -56 22 -16 -65 -5 -12
000030 d6 e5 2e ef df e4 13 df c3 0f f0 fc f2 dc 29 c0
       -42 -27 46 -17 -33 -28 19 -33 -61 15 -16 -4 -14 -36 41 -64
000040 f9 30 d2 ed 32 0d ce 04 dc 4b 1f cf e6 27 ef 26
       -7 48 -46 -19 50 13 -50 4 -36 75 31 -49 -26 39 -17 38
000050 db cb ee 1d 06 ed f1 0a 0c f7 10 11 ef 15 e0 f3
       -37 -53 -18 29 6 -19 -15 10 12 -9 16 17 -17 21 -32 -13
000060 f8 e1 05 08 f8 00 06 ec d5 f7 f5 ed 11 1a 30 da
       -8 -31 5 8 -8 0 6 -20 -43 -9 -11 -19 17 26 48 -38
000070 ed d2 f8 18 09 05 e4 fb 0b 2c 18 fd eb e4 df 04
       -19 -46 -8 24 9 5 -28 -5 11 44 24 -3 -21 -28 -33 4
000080 05 dd 09 f5 c8 f4 c1 fa eb 04 e2 05 df 04 45 0b
       5 -35 9 -11 -56 -12 -63 -6 -21 4 -30 5 -33 4 69 11
000090 e4 0f 07 f6 d5 32 17 26 ed f3 ed 18 fb 04 01 db
       -28 15 7 -10 -43 50 23 38 -19 -13 -19 24 -5 4 1 -37
0000a0 10 fc ee e9 d2 0b 0c e4 e3 12 08 ff 0e 13 fe f7
       16 -4 -18 -23 -46 11 12 -28 -29 18 8 -1 14 19 -2 -9
0000b0 fe ea d9 00 07 04 11 0e ec f4 0e f5 0a 12 ef 04
       -2 -22 -39 0 7 4 17 14 -20 -12 14 -11 10 18 -17 4
0000c0 30 1b 02 01 fd d8 10 01 19 db 00 e0 bf 1a cd 27
       48 27 2 1 -3 -40 16 1 25 -37 0 -32 -65 26 -51 39
0000d0 fd ea fa e1 15 e0 c6 ef e5 db b4 f0 1e e1 f7 ff
       -3 -22 -6 -31 21 -32 -58 -17 -27 -37 -76 -16 30 -31 -9 -1
0000e0 f9 fd ef 01 14 d0 ea e6 2c 08 c2 df 84 01 00 fc
       -7 -3 -17 1 20 -48 -22 -26 44 8 -62 -33 -124 1 0 -4
0000f0 00 f7 01 e8 81 f8 e0 0b ec f6 0e f4 1e de 08 d0
       0 -9 1 -24 -127 -8 -32 11 -20 -10 14 -12 30 -34 8 -48

model/quant_dense/MatMul;model/quant_dense/LastValueQuant/FakeQuantWithMinMaxVars i1 [1, 1152] scale=0.0051929117 zero_point=0
000000 0f e9 fb fc fd 04 fd 06 fa 01 01 10 f2 f9 ec 1c
       0.077893674 -0.11943697 -0.025964558 -0.020771647 -0.015578736 0.020771647 -0.015578736 0.031157471 -0.031157471 0.0051929117 0.0051929117 0.08308659 -0.07270076 -0.03635038 -0.10385823 0.14540152
000010 01 fb f7 da ef fa 10 ec f6 fa f8 00 09 fd f3 fe
       0.0051929117 -0.025964558 -0.046736207 -0.19733064 -0.0882795 -0.031157471 0.08308659 -0.10385823 -0.051929116 -0.031157471 -0.041543294 0.0 0.046736207 -0.015578736 -0.067507856 -0.010385823
000020 23 0b 00 fe fc 23 f7 fb fb 03 fc 09 01 ef 01 01
       0.1817519 0.05712203 0.0 -0.010385823 -0.020771647 0.1817519 -0.046736207 -0.025964558 -0.025964558 0.015578736 -0.020771647 0.046736207 0.0051929117 -0.0882795 0.0051929117 0.0051929117
000030 f5 00 f9 05 f8 15 fc 00 09 02 f8 fa f8 f3 09 f0
       -0.05712203 0.0 -0.03635038 0.025964558 -0.041543294 0.109051146 -0.020771647 0.0 0.046736207 0.010385823 -0.041543294 -0.031157471 -0.041543294 -0.067507856 0.046736207 -0.08308659
000040 2c f8 02 f5 f8 fc e6 01 fb ec 04 06 0d 11 01 f3
       0.22848812 -0.041543294 0.010385823 -0.05712203 -0.041543294 -0.020771647 -0.13501571 0.0051929117 -0.025964558 -0.10385823 0.020771647 0.031157471 0.067507856 0.0882795 0.0051929117 -0.067507856
000050 f3 04 f7 f6 0d 37 32 ed f8 fe 01 01 06 ee 13 d2
       -0.067507856 0.020771647 -0.046736207 -0.051929116 0.067507856 0.28561014 0.25964558 -0.09866532 -0.041543294 -0.010385823 0.0051929117 0.0051929117 0.031157471 -0.09347241 0.09866532 -0.23887394
000060 1e da 00 f9 09 0c 12 fd f9 de ff 0e fe 0f fe f7
       0.15578735 -0.19733064 0.0 -0.03635038 0.046736207 0.062314942 0.09347241 -0.015578736 -0.03635038 -0.176559 -0.0051929117 0.07270076 -0.010385823 0.077893674 -0.010385823 -0.046736207
000070 fb f0 f2 11 fa 1e fa f2 19 fd 06 00 fe f8 16 fb
       -0.025964558 -0.08308659 -0.07270076 0.0882795 -0.031157471 0.15578735 -0.031157471 -0.07270076 0.12982279 -0.015578736 0.031157471 0.0 -0.010385823 -0.041543294 0.11424406 -0.025964558
000080 0a f9 00 fc 07 1e 1e 06 fa ed 00 02 f9 10 f9 f7
       0.051929116 -0.03635038 0.0 -0.020771647 0.03635038 0.15578735 0.15578735 0.031157471 -0.031157471 -0.09866532 0.0 0.010385823 -0.03635038 0.08308659 -0.03635038 -0.046736207
000090 f6 ff 03 f8 02 02 0f 16 0b 02 03 ff 00 ee 0b f8
       -0.051929116 -0.0051929117 0.015578736 -0.041543294 0.010385823 0.010385823 0.077893674 0.11424406 0.05712203 0.010385823 0.015578736 -0.0051929117 0.0 -0.09347241 0.05712203 -0.041543294
0000a0 01 e7 00 f4 fd e8 09 02 ff 09 03 ff fd 0e 05 fc
       0.0051929117 -0.12982279 0.0 -0.062314942 -0.015578736 -0.124629885 0.046736207 0.010385823 -0.0051929117 0.046736207 0.015578736 -0.0051929117 -0.015578736 0.07270076 0.025964558 -0.020771647
0000b0 08 0e 09 f8 09 13 f1 10 ed fd fb f8 0d de ff 02
       0.041543294 0.07270076 0.046736207 -0.041543294 0.046736207 0.09866532 -0.077893674 0.08308659 -0.09866532 -0.015578736 -0.025964558 -0.041543294 0.067507856 -0.176559 -0.0051929117 0.010385823
0000c0 23 0f 04 fa 04 e2 f9 fb fc 18 03 d5 ee e5 e5 ee
       0.1817519 0.077893674 0.020771647 -0.031157471 0.020771647 -0.15578735 -0.03635038 -0.025964558 -0.020771647 0.124629885 0.015578736 -0.2232952 -0.09347241 -0.14020862 -0.14020862 -0.09347241
0000d0 f5 0b 01 02 f6 0a fa 00 04 fd 14 fd fc 23 f0 03
       -0.05712203 0.05712203 0.0051929117 0.010385823 -0.051929116 0.051929116 -0.031157471 0.0 0.020771647 -0.015578736 0.10385823 -0.015578736 -0.020771647 0.1817519 -0.08308659 0.015578736
0000e0 14 fe e8 01 f7 02 fa 08 10 18 03 f8 f3 d8 f2 f0
       0.10385823 -0.010385823 -0.124629885 0.0051929117 -0.046736207 0.010385823 -0.031157471 0.041543294 0.08308659 0.124629885 0.015578736 -0.041543294 -0.067507856 -0.20771646 -0.07270076 -0.08308659
0000f0 26 02 fc 0e 02 0c 16 11 16 f9 07 05 03 20 06 00
       0.19733064 0.010385823 -0.020771647 0.07270076 0.010385823 0.062314942 0.11424406 0.0882795 0.11424406 -0.03635038 0.03635038 0.025964558 0.015578736 0.16617317 0.031157471 0.0
