training_quantization/models/gate_classifier_model.onnx (onnx, 82542 bytes, 17 tensors)

fully_connected.weight f4 [1, 1152]
-0.07791045 -0.05725514 -0.21907002 0.020482488 0.029592564 0.05867814 0.09445159 -0.05030504
0.07851514 0.071447775 -0.1616078 0.055797826 0.0477581 0.34815922 0.20960678 0.17985398
0.004300444 0.44234616 0.46144018 0.6522421 0.52960604 0.32811615 0.3554129 0.58674854
-0.014162453 0.016892064 -0.00631476 0.04424844 0.014949068 -0.03792101 -0.108239174 -0.016767763
0.040125817 -0.03418673 -0.07876205 -0.060701467 0.006689131 -0.0065488224 -0.15128146 -0.13965058
0.18766554 0.31976077 0.112034045 0.04171125 0.1565053 0.5547914 -0.057541896 0.08726608
0.07398909 -0.088534914 0.124398485 0.4346463 0.42221344 0.36416382 0.059324127 0.12125111
0.06750112 0.18406586 0.29622552 -0.017099923 -0.118535094 0.154313 0.056046486 -0.02855936
-0.07218108 -0.33549234 -0.018373646 0.1307209 0.1338247 -0.099188484 0.10363596 -0.31985572
0.05856027 -0.14629605 -0.068896174 -0.009104776 -0.019455781 0.11396274 0.05880088 -0.17145614
-0.08888366 -0.08381169 -0.05008606 0.19355492 -0.21220769 -0.18173169 -0.37407777 -0.39705572
-0.3905992 -0.17536995 -0.19952889 -0.07525339 -0.17947744 -0.20668489 0.036795784 -0.018077014
-0.09021677 -0.03174681 -0.10753262 -0.09884007 0.03694304 0.07458902 -0.12152881 0.053080596
-0.0562085 0.0902955 0.095767826 0.070833996 0.3368345 0.2984508 0.27346992 0.15721948
0.375109 0.08860175 0.08572099 -0.06640089 -0.12501527 -0.09741811 0.23898883 -0.010141911
-0.0742959 0.18129443 0.16925716 0.12014359 0.08093747 0.18754026 0.19609083 -0.043675933
0.2500038 -0.045675293 0.2897743 0.0975474 0.044085532 -0.08934777 -0.21622695 -0.15670304
0.14690247 -0.0018608203 -0.13878238 -0.099938616 -0.007272505 -0.09725634 0.05881067 0.30499092
0.22553608 -0.12005149 0.14335127 -0.107232936 -0.05502114 -0.095729016 0.25782338 0.10596882
0.4641724 0.025881946 0.5281605 0.07582776 0.04571459 0.13816385 0.42541716 0.031631008
0.14357758 0.29775864 0.45363483 0.2074032 -0.011772242 -0.103051 -0.011032797 0.07743685
0.0615638 -0.073476434 0.021750668 -0.0023263872 -0.00461696 0.008929406 0.1004011 -0.04175485
-0.11342711 0.0690127 -0.20352636 -0.036394913 -0.1675012 -0.22912319 0.07883297 0.09656511
0.15284713 -0.1127183 0.056898315 -0.052343875 0.05429572 0.007417714 0.014747296 0.19272783
0.07816748 0.01594448 0.024635464 -0.0010915231 0.07804219 -0.10140725 0.04231333 -0.053466067
-0.4680492 -0.43210852 -0.22708747 0.06346633 -0.067801856 0.26712948 0.41814357 0.062393345
0.18160212 -0.0063659283 -0.046492353 0.2295126 0.25806215 -0.1786324 0.010266734 0.0060761473
0.008010101 -0.053346343 -0.33933184 -0.14855166 -0.22052006 0.03231573 0.11420069 -0.13136177
-0.28882694 -0.201745 -0.17124821 0.0054813037 0.118122086 -0.07963863 -0.23116836 0.029180596
-0.0073619788 -0.064176686 -0.07554446 -0.46488005 -0.2404937 -0.35155076 -0.3051509 -0.13226303
-0.09593763 0.19995722 0.08404397 0.052756395 0.057680476 -0.08571194 -0.07471054 -0.088828005
-0.08076363 0.068256915 0.1160804 -0.072125 0.1632341 0.06454535 -0.067063294 -0.18360266
00000000: 848f 9fbd 5e84 6abd e453 60be e4ca a73c
00000010: 1b6c f23c 7d58 703d d66f c13d a80c 4ebd
00000020: 8ccc a03d 3653 923d 847c 25be 438c 643d
00000030: ff9d 433d ed41 b23e 29a3 563e a42b 383e
00000040: bdea 8c3b 327b e23e e341 ec3e 57f9 263f
00000050: 4394 073f d7fe a73e aef8 b53e 2735 163f
00000060: a209 68bc 3a61 8a3c 0cec cebb da3d 353d
00000070: f0ec 743c 1053 1bbd 80ac ddbd 8c5c 89bc
00000080: f85a 243d 6207 0cbd ff4d a1bd 1aa2 78bd
00000090: 7f30 db3b 8197 d6bb 87e9 1abe 9000 0fbe
000000a0: 652b 403e afb7 a33e 1b72 e53d 6ad9 2a3d
000000b0: ed42 203e cf06 0e3f 0db1 6bbd 8fb8 b23d
000000c0: 9887 973d cb51 b5bd a2c4 fe3d f689 de3e
000000d0: 5c2c d83e ae73 ba3e dbfd 723d 8152 f83d
000000e0: 073e 8a3d c37b 3c3e dfaa 973e 2315 8cbc
000000f0: 87c2 f2bd 3a04 1e3e 0091 653d 52f5 e9bc
00000100: add3 93bd a7c5 abbe 5484 96bc b3db 053e
00000110: 5809 093e 5523 cbbd 173f d43d 21c4 a3be
00000120: e5dc 6f3d a2ce 15be 7019 8dbd 332c 15bc
00000130: bb61 9fbc 4c65 e93d 31d9 703d 3392 2fbe
00000140: a308 b6bd 77a5 abbd 0a27 4dbd 4333 463e
00000150: f94c 59be df17 3abe 1f87 bfbe e34a cbbe
00000160: 9efc c7be 2e94 33be 4d51 4cbe 731e 9abd
00000170: efc8 37be 34a5 53be 2db7 163d 3f16 94bc
00000180: 92c3 b8bd f108 02bd 103a dcbd aa6c cabd
00000190: 9651 173d 21c2 983d 19e4 f8bd 0a6b 593d
000001a0: e23a 66bd d9ec b83d ec21 c43d 6a11 913d
000001b0: 9275 ac3e 8bce 983e 4004 8c3e 25fe 203e
000001c0: 490e c03e d674 b53d 7d8e af3d 31fd 87bd
000001d0: 0104 00be 2583 c7bd 7db9 743e 422a 26bc
000001e0: 7328 98bd 3fa5 393e c051 2d3e d80d f63d
000001f0: 8bc2 a53d 8e0a 403e 09cc 483e 89e5 32bd
00000200: 8000 803e 0416 3bbd 4c5d 943e eec6 c73d
00000210: 0893 343d f7fb b6bd 996a 5dbe c376 20be
00000220: 9a6d 163e c5e6 f3ba f81c 0ebe 9eac ccbd
00000230: 324e eebb 552e c7bd 75e3 703d c527 9c3e
00000240: eef2 663e 8edd f5bd adca 123e f19c dbbd
00000250: d95d 61bd 930d c4bd 6d01 843e 2e06 d93d
00000260: 01a8 ed3e 6006 d43c 8735 073f 964b 9b3d
00000270: 393f 3b3d d37a 0d3e 47d0 d93e 848f 013d
00000280: 0006 133e d273 983e d342 e83e 8161 543e
00000290: 5de0 40bc 670c d3bd e8c2 34bc 3697 9e3d
000002a0: 532a 7c3d d07a 96bd 752e b23c 4d76 18bb
000002b0: de49 97bb a54c 123c 189f cd3d 2207 2bbd
000002c0: 794c e8bd 8856 8d3d 3769 50be d512 15bd
000002d0: 6f85 2bbe 459f 6abe 2e73 a13d eec3 c53d
000002e0: f583 1c3e dad8 e6bd 350e 693d 8866 56bd
000002f0: 3065 5e3d 4c10 f33b a59e 713c 725a 453e
00000300: 4616 a03d 009e 823c 50d0 c93c 7011 8fba
00000310: 95d4 9f3d 9bae cfbd be50 2d3d 3cff 5abd
00000320: 25a4 efbe 543d ddbe 9e89 68be a3fa 813d
00000330: b3db 8abd 32c5 883e ea16 d63e 2a90 7f3d
00000340: e8f5 393e 4799 d0bb c46e 3ebd 5a05 6b3e
00000350: b920 843e 69eb 36be ce35 283c 6b1a c73b
00000360: cc3c 033c b281 5abd e7bc adbe ed1d 18be
00000370: 03d0 61be 805d 043d 0de2 e93d b383 06be
00000380: 20e1 93be 3e96 4ebe b15b 2fbe 829c b33b
00000390: fee9 f13d 9419 a3bd 66b7 6cbe 250c ef3c
000003a0: c13c f1bb 116f 83bd 0eb7 9abd c204 eebe
000003b0: fb43 76be 76fe b3be bd3c 9cbe f66f 07be
000003c0: f37a c4bd 96c1 4c3e 3f1f ac3d 1717 583d
000003d0: 5d42 6c3d be89 afbd d701 99bd 75eb b5bd
000003e0: 6767 a5bd 48ca 8b3d 90bb ed3d 46b6 93bd
000003f0: d726 273e 5a30 843d 7b58 89bd 5602 3cbe

onnx::Conv_110 f4 [4, 1, 5, 5]
-0.103294946 -0.07607934 -0.09230477 -0.05379373 -0.07564116 -0.064905755 -0.061945144 -0.029694153
-0.024268158 -0.04074359 -0.008021467 -0.009531056 0.027504606 0.043374304 0.0017055098 0.0034394271
0.046241283 0.06843614 0.06427377 0.10270989 0.019358372 0.024579193 0.07965087 0.08787883
0.056071144 0.010982346 0.007851899 -0.01427124 0.0009542857 -0.044709634 0.026530864 0.0036595573
-0.018237518 -0.017392099 -0.0409434 0.031057054 0.037004024 0.02002394 0.021942753 0.0017573673
0.008928511 0.013664252 0.028539114 0.035827566 0.027671581 0.004617659 0.018256508 0.046320595
0.011102157 0.044424836 -0.020575795 0.024554627 0.0015371918 0.025661632 -0.0017776085 0.021059679
0.030696692 -0.014356574 0.013939554 0.0031192107 0.03591833 -0.020881627 -0.010260312 -0.013718541
0.01986663 -0.010843827 -0.0036744068 0.008060379 0.015226309 0.04040745 0.03798751 0.02017689
0.027934449 0.021908056 0.03917165 -0.0811504 -0.01038943 -0.051639445 0.08372971 0.116611816
-0.068065226 -0.11565301 -0.08881708 0.021401804 0.14006788 -0.07322278 -0.11327566 -0.077048354
0.02903104 0.17580315 -0.032399755 -0.12568958 -0.06196012 0.12491919 0.12201678 -0.082076184
0.0050987834 -0.081674315 0.07878548 0.18165559
00000000: 4d8c d3bd 7ccf 9bbd 490a bdbd d056 5cbd
00000010: c1e9 9abd 4fed 84bd 31ba 7dbd 2741 f3bc
00000020: 04ce c6bc c0e2 26bd 796c 03bc 2528 1cbc
00000030: 5751 e13c 41a9 313d 6a8b df3a 0368 613b
00000040: 8067 3d3d 3f28 8c3d f7a1 833d 9059 d23d
00000050: 7395 9e3c 4e5a c93c ff1f a33d d1f9 b33d
00000060: dbaa 653d 4cef 333c 40a5 003c ebd1 69bc
00000070: 0729 7a3a 7321 37bd 4157 d93c 2fd5 6f3b
00000080: d966 95bc e079 8ebc 44b4 27bd 5d6b fe3c
00000090: 8891 173d 3f09 a43c 4ac1 b33c 7657 e63a
000000a0: e448 123c 07e0 5f3c dcca e93c edbf 123d
000000b0: 83af e23c bb4f 973b ac8e 953c aaba 3d3d
000000c0: d2e5 353c d1f6 353d 928e a8bc c926 c93c
000000d0: 997b c93a 5838 d23c a5fe e8ba 5985 ac3c
000000e0: a177 fb3c d637 6bbc ba62 643c ac6b 4c3b
000000f0: 191f 133d f20f abbc de1a 28bc bbc3 60bc
00000100: 58bf a23c 4faa 31bc 51ce 70bb ae0f 043c
00000110: c577 793c 4882 253d cb98 1b3d 014a a53c
00000120: c9d6 e43c 8678 b33c 7472 203d 2e32 a6bd
00000130: 6e38 2abc e283 53bd 7b7a ab3d 2dd2 ee3d
00000140: c865 8bbd 7cdb ecbd bbe5 b5bd d652 af3c
00000150: f46d 0f3e d3f5 95bd 12fd e7bd 87cb 9dbd
00000160: 81d2 ed3c be05 343e 9bb5 04bd c5b4 00be
00000170: e5c9 7dbd a2d5 ff3d efe3 f93d 8f17 a8bd
00000180: b213 a73b dd44 a7bd 485a a13d ec03 3a3e

onnx::Conv_111 f4 [4]
0.031887487 -1.1584215 -1.0688999 -0.02843999
00000000: 749c 023d 2847 94bf b6d1 88bf fbfa e8bc

onnx::Conv_113 f4 [4, 4, 3, 3]
-0.27984956 -0.22738482 -0.20172285 0.49818718 0.6972557 0.1938239 -0.21192153 0.22254747
-0.17971088 0.0802448 0.27352664 0.36360773 -0.29754117 -0.53903407 -0.104876585 0.3401965
-0.0048976135 -0.13882051 0.24878511 0.18043448 0.36702105 -0.45608133 -0.22076546 0.0075449245
0.01108685 -0.12895119 0.11306952 -0.10771635 -0.2478606 -0.0010273578 0.19173323 0.1721429
0.22306207 -0.016704367 -0.15857066 -0.28033715 0.29056057 0.2549111 -0.20486473 -0.009511175
0.1773337 0.10534004 -0.2011488 -0.19560601 -0.09463096 -0.12086457 -0.07971337 -0.018268177
0.023212144 -0.08338514 -0.20219043 0.31572482 0.27961382 -0.0054667327 0.1752018 -0.1585436
0.021852054 -0.050623033 -0.2551216 -0.15256281 0.21323322 0.059189864 -0.06555342 0.35641724
0.31882176 -0.05539461 0.20105897 0.20793343 0.09681556 0.10520025 0.06681581 -0.13866615
0.16492645 -0.02707489 -0.14036289 -0.15158498 -0.029458879 -0.0009026887 -0.07154822 0.45923716
0.894422 0.008500917 0.09957975 0.4712127 0.374955 0.37909266 0.3342726 0.077490315
-0.32306334 -0.37299824 0.44814467 0.32958534 0.19896825 0.20501243 -0.18597211 -0.039824586
-0.3076005 -0.598913 -0.5238007 0.02891267 0.048858747 0.0128723625 -0.13519593 -0.08809549
-0.17812435 -0.04459473 0.09669025 0.08974004 -0.26507434 -0.050840598 0.06439496 -0.26548108
0.07520296 0.16118705 -0.10479207 0.06420184 0.15919746 0.10192836 -0.008312488 0.1006307
-0.023651412 -0.058965296 0.060715605 -0.085502334 0.011990585 -0.07084334 0.1764107 -0.05945304
0.07416104 0.2590694 -0.18641402 -0.06379136 -0.24313542 -0.25483328 0.14183384 -0.72994894
-0.067438126 0.07835309 -0.22398081 0.27785352 0.34311572 -0.30898827 0.35980016 0.4314989
00000000: 7148 8fbe 91d7 68be 6f90 4ebe 6412 ff3e
00000010: 597f 323f c679 463e f501 59be 7ce3 633e
00000020: 2106 38be 6357 a43d af0b 8c3e cb2a ba3e
00000030: 5157 98be 23fe 09bf 89c9 d6bd 3c2e ae3e
00000040: 297c a0bb f726 0ebe 86c1 7e3e d1c3 383e
00000050: 2fea bb3e 7e83 e9be 5710 62be 6a3b f73b
00000060: 9fa5 353c c80b 04be fe90 e73d 649a dcbd
00000070: 2bcf 7dbe 68a8 86ba b755 443e 3a46 303e
00000080: 626a 643e 99d7 88bc 5960 22be 5a88 8fbe
00000090: 5bc4 943e b583 823e 0fc8 51be c2d4 1bbc
000000a0: f796 353e 85bc d73d f3f9 4dbe f14c 48be
000000b0: e0cd c1bd d887 f7bd c340 a3bd 25a7 95bc
000000c0: 6527 be3c d4c5 aabd 020b 4fbe afa6 a13e
000000d0: 8b29 8f3e 4722 b3bb 1a68 333e 4159 22be
000000e0: 1403 b33c 195a 4fbd 4c9f 82be 6d39 1cbe
000000f0: cf59 5a3e 1271 723d df40 86bd 527c b63e
00000100: 9b3c a33e 75e5 62bd 67e2 4d3e 80ec 543e
00000110: 3c47 c63d 3b73 d73d bad6 883d 80fe 0dbe
00000120: 7be2 283e 29cc ddbc 4abb 0fbe 1839 1bbe
00000130: bf53 f1bc 6aa2 6cba e087 92bd 2221 eb3e
00000140: d7f8 643f 6e47 0b3c 78f0 cb3d ca42 f13e
00000150: 1afa bf3e 6f18 c23e c725 ab3e 3eb3 9e3d
00000160: 8f68 a5be a0f9 bebe 3873 e53e 69bf a83e
00000170: 55be 4b3e c7ee 513e 796f 3ebe 1b1f 23bd
00000180: d07d 9dbe 5d52 19bf cd17 06bf 44da ec3c
00000190: 1c20 483d 9ae6 523c cd70 0abe 696b b4bd
000001a0: 3b66 36be f7a8 36bd 8a05 c63d a0c9 b73d
000001b0: d3b7 87be 3b3e 50bd 81e1 833d 23ed 87be
000001c0: 0204 9a3d 380e 253e 3a9d d6bd 417c 833d
000001d0: a904 233e d1bf d03d 1a31 08bc 7817 ce3d
000001e0: 9bc0 c1bc 9885 71bd edb0 783d d91b afbd
000001f0: 2974 443c 5016 91bd 02a5 343e 0885 73bd
00000200: bee1 973d bfa4 843e 51e3 3ebe 0ba5 82bd
00000210: 7ef8 78be 8279 82be e43c 113e efdd 3abf
00000220: 001d 8abd 9677 a03d 3a5b 65be d142 8e3e
00000230: ddac af3e b633 9ebe ba37 b83e 6ced dc3e

onnx::Conv_114 f4 [4]
-0.064587265 0.047955155 -0.099245004 0.013465684
00000000: 5446 84bd a06c 443d f740 cbbd 2c9f 5c3c

onnx::Conv_116 f4 [4, 4, 3, 3]
1.034896 -1.2941307 0.27810887 -0.25612655 1.1459787 -0.8460676 -0.36496815 -0.010467862
0.1526708 -0.045788288 -0.81229496 0.6017977 0.17477119 1.0125341 -1.5221035 -0.97417104
-0.24845833 0.9782537 0.832316 -0.32765365 -0.39225346 0.08689094 0.06256823 -0.26274633
-0.567711 -0.18526076 0.56348294 -0.08741089 -1.163345 -0.21014403 0.20319448 1.0419531
-0.013878406 -0.18744017 0.038919978 0.20343582 0.09431379 0.04844716 -0.3891663 0.25714087
-0.15408391 -0.20415184 0.28521314 0.22432376 -0.048734833 0.37577364 0.13458653 0.3168477
-0.09871328 -0.2416273 -0.36214077 0.24298975 -0.03802251 -0.14390777 0.3433479 -0.30446047
-0.018922286 0.08956644 -0.36880592 -0.29939878 0.27438918 0.15165533 0.1864677 -0.20294029
-0.4493027 -0.0010001757 0.0037342836 -0.33875832 -0.6137502 0.015740752 -0.03194152 -0.058627635
0.029539539 -0.012231068 -0.1965616 0.09389974 -0.19045505 -0.25535047 0.103404604 0.07914522
-0.32999188 -0.023208909 0.010294972 0.09900953 0.035008457 0.25398642 0.24179947 -0.0029376072
0.09474932 0.3498296 -0.1130395 -0.21745877 -0.22470528 -0.007638275 -0.04993614 -0.23385231
0.16808915 0.00067707594 -0.008021733 -0.09272209 0.07174569 0.11970155 0.06373027 0.23389238
0.10991864 0.09982516 0.1254962 0.31795162 -0.17567545 0.52940786 -0.30463913 -0.506259
-0.18160914 0.62654006 0.18494502 0.44093227 -0.68708444 -0.06355288 -0.087963484 -0.25406316
-0.08735363 -0.4108149 0.6384557 0.13964365 0.42983374 -0.46360132 -0.30311078 -0.39815584
0.60040057 -0.18651506 0.9719519 -0.5008466 0.58377343 -0.55977553 -0.14186086 -0.15483741
-0.20082358 -0.12110597 -0.83669287 0.53046334 0.29353362 0.95623195 -0.30980927 -0.22904569
00000000: 7977 843f 13a6 a5bf 4964 8e3e 0523 83be
00000010: 6eaf 923f e397 58bf 1bdd babe 6581 2bbc
00000020: bc55 1c3e 808c 3bbd 90f2 4fbf 6a0f 1a3f
00000030: 38f7 323e b89a 813f 4ad4 c2bf 4663 79bf
00000040: dc6b 7ebe d66e 7a3f a912 553f 38c2 a7be
00000050: 72d5 c8be e1f3 b13d c623 803d b086 86be
00000060: 8255 11bf ffb4 3dbe 6b40 103f 7b04 b3bd
00000070: 7de8 94bf ff2f 57be 3712 503e b85e 853f
00000080: 4162 63bc 51f0 3fbe 8e6a 1f3d 7b51 503e
00000090: 9727 c13d 8770 463d ce40 c7be f8a7 833e
000000a0: 2cc8 1dbe 2e0d 51be 7507 923e 21b5 653e
000000b0: 2d9e 47bd 6765 c03e 0dd1 093e dd39 a23e
000000c0: 302a cabd 266d 77be 846a b9be 4ed2 783e
000000d0: 7ebd 1bbd 8f5c 13be 4ccb af3e 3ee2 9bbe
000000e0: e902 9bbc 9c6e b73d 21d4 bcbe cc4a 99be
000000f0: bd7c 8c3e 894b 1b3e 64f1 3e3e 94cf 4fbe
00000100: 010b e6be 5418 83ba e2ba 743b bb71 adbe
00000110: bc1e 1dbf c0f2 803c 1cd5 02bd 8823 70bd
00000120: e7fc f13c d164 48bc 7247 49be 824e c03d
00000130: a606 43be 4cbd 82be cbc5 d33d e416 a23d
00000140: b2f4 a8be 9c20 bebc 3eac 283c 82c5 ca3d
00000150: 0765 0f3d 820a 823e 489a 773e df84 40bb
00000160: ee0b c23d de1c b33e 4181 e7bd 83ad 5ebe
00000170: 2419 66be 7f4a fabb d789 4cbd fb76 6fbe
00000180: 901f 2c3e cc7d 313a 966d 03bc 14e5 bdbd
00000190: 68ef 923d 1626 f53d 0485 823d 7c81 6f3e
000001a0: 061d e13d 2271 cc3d 1382 003e 8eca a23e
000001b0: 44e4 33be 4687 073f a9f9 9bbe 319a 01bf
000001c0: bff7 39be ee64 203f 3a62 3d3e e0c1 e13e
000001d0: c4e4 2fbf 0328 82bd 3326 b4bd 9114 82be
000001e0: 76e6 b2bd 5556 d2be d571 233f bffe 0e3e
000001f0: 2b13 dc3e 275d edbe 5631 9bbe 15db cbbe
00000200: dab3 193f cefd 3ebe d7d1 783f 7c37 00bf
00000210: 2d72 153f 734d 0fbf f943 11be b38d 1ebe
00000220: b2a4 4dbe 6806 f8bd 8131 56bf 72cc 073f
00000230: 0a4a 963e 9ecb 743f 529f 9ebe f48a 6abe

onnx::Conv_117 f4 [4]
-0.0008228123 0.12505643 0.09146303 -0.027588997
00000000: 00b2 57ba cb0e 003e f850 bb3d 5202 e2bc

onnx::Conv_119 f4 [4, 1, 3, 3]
-1.6103395 -0.9404527 1.1015314 1.3860106 0.4457538 0.8819182 1.235014 -1.3508115
-1.0582587 0.10520173 -0.0018320603 0.32520688 -0.10799286 -0.20839867 0.34913555 -0.15130484
0.09658447 0.3062725 -0.01812372 0.12046398 -0.55355954 0.11848404 0.32393947 0.15030123
0.26355857 -0.4435091 -0.7200194 0.33972412 0.20724359 0.56726503 0.1110006 -0.10727863
-0.26541242 -1.0767938 -0.8042904 0.7978471
00000000: 9b1f cebf 82c1 70bf fbfe 8c3f cc68 b13f
00000010: d839 e43e 64c5 613f f014 9e3f 64e7 acbf
00000020: 0575 87bf 0174 d73d be21 f0ba 8481 a63e
00000030: 5c2b ddbd 7666 55be e5c1 b23e a8ef 1abe
00000040: 14ce c53d c0cf 9c3e 3278 94bc d2b5 f63d
00000050: 14b6 0dbf c3a7 f23d 65db a53e 91e8 193e
00000060: 26f1 863e a013 e3be 3153 38bf 52f0 ad3e
00000070: aa37 543e 4838 113f 4854 e33d e6b4 dbbd
00000080: 23e4 87be 61d4 89bf fae5 4dbf b53f 4c3f

onnx::Conv_120 f4 [4]
-0.13691694 0.119428575 -0.5804953 0.05192487
00000000: f433 0cbe f896 f43d 579b 14bf 2caf 543d

onnx::Conv_122 f4 [16, 8, 3, 3]
0.1832937 0.30166066 0.148271 0.022794781 0.12841734 -0.09207988 0.104391634 -0.07326344
-0.2563511 0.33542553 0.48434657 0.17546873 0.13226843 0.5591351 0.4013452 0.25967085
0.22172967 -0.08491719 -0.27509722 -0.43806088 -0.061486457 -0.1676547 -0.21135098 -0.05017022
0.16052644 0.20763528 0.10994044 0.2510916 0.3658368 0.2768979 -0.093232915 -0.06903771
0.097349115 -0.20844847 -0.06898346 0.1301847 -0.21709159 -0.011323545 -0.14910832 -0.1888133
-0.33426848 -0.24771008 0.0007563659 -0.113626115 0.12522049 -0.00086323346 0.052870046 0.11680988
0.0513797 -0.060712524 0.003826843 -0.06958096 0.034698907 -0.046870295 0.14603986 0.022960236
-0.04085581 0.07436884 -0.21952252 -0.025575211 0.06787757 0.058028266 -0.22198226 -0.20170386
0.014542768 0.1433389 0.026666494 0.06382567 -0.06813407 -0.015281309 -0.25270605 0.05461138
0.09479936 0.20947954 0.02069287 -0.091558665 0.09703319 -0.033209868 0.06842293 0.0018258388
0.04476098 0.07974831 -0.015830917 0.100487284 0.13372284 0.22715403 0.10881267 0.075636744
0.00960432 -0.014643872 0.16161162 0.11030729 0.031367604 0.088365965 -0.074039996 0.019026982
0.05120555 0.0043133954 -0.07449848 -0.12669909 -0.10396822 -0.029589737 0.0178716 -0.03349953
-0.16017196 0.05150111 0.02695 0.04454711 0.63876116 0.5949437 0.38844597 -0.099119104
-0.1178235 -0.17665395 0.15700518 -0.41450667 -0.052783404 0.04589806 -0.15609957 -0.1773052
-0.16226783 0.14975075 0.045276742 0.13380773 0.14107023 0.1450092 0.18005504 0.32438615
0.33812344 0.10707968 -0.22993337 0.014586502 -0.058459803 -0.11264814 0.114583395 -0.67441064
-0.39446598 -0.1549886 0.120822005 0.3284646 0.19913629 0.16151755 0.08020833 -0.33562678
-0.25227547 -0.14891209 -0.04469692 -0.23906931 -0.11154978 -0.07534654 0.022860786 0.042049855
0.02672964 -0.13645665 -0.19483924 0.11968003 0.05241897 0.17850772 0.14838499 -0.02618557
0.10873452 0.05782895 0.119856276 0.044736054 -0.02866159 -0.0027150162 -0.012586902 -0.11252094
0.044224627 0.10770797 -0.049230333 -0.14909726 -0.1864122 -0.17473537 0.016775997 -0.06502532
-0.0537704 0.09020769 0.20376872 0.08523296 0.0037156218 -0.14223547 -0.24018966 -0.05497662
-0.048301425 -0.20955358 -0.13125339 0.026078008 -0.12582003 -0.046074502 -0.20683986 -0.032964148
0.07196726 -0.17011262 0.007415542 -0.1272636 -0.24844371 -0.03989813 -0.13492374 0.057435915
0.10428291 0.12545927 0.07752472 0.20092523 0.04585603 0.24749409 0.28823376 0.05767303
-0.110793225 -0.14705575 0.018944053 -0.16785803 -0.118082486 0.09093434 -0.0876454 -0.18352735
0.0048626494 -0.02053254 -0.017266922 0.025338715 -0.042596955 0.064051025 0.1499246 0.029998941
0.036670517 -0.0029767486 -0.11285902 -0.03933755 0.013081757 -0.06530924 -0.0008439371 0.10129267
-0.011727656 0.12345506 0.03964865 0.05439507 0.021571904 -0.12993355 -0.16662823 -0.23422554
-0.011595946 -0.083212 -0.14399576 -0.10579828 0.0016628329 0.052835714 0.010020429 0.057692476
-0.04537925 0.02833616 -0.037972685 -0.112528495 -0.06108424 0.10086617 0.15397875 -0.37113264
00000000: 58b1 3b3e 4473 9a3e 5ad4 173e 1fbc ba3c
00000010: d67f 033e 6094 bcbd 48cb d53d 240b 96bd
00000020: 7440 83be e5bc ab3e 46fc f73e 13ae 333e
00000030: 6071 073e 7a23 0f3f 1e7d cd3e 94f3 843e
00000040: 1a0d 633e 10e9 adbd 8bd9 8cbe 8449 e0be
00000050: 39d9 7bbd acad 2bbe 646c 58be 4a7f 4dbd
00000060: 0b61 243e 589e 543e 7428 e13d 148f 803e
00000070: f64e bb3e 90c5 8d3e e6f0 bebd a563 8dbd
00000080: f95e c73d 8473 55be 3347 8dbd 234f 053e
00000090: 424d 5ebe 6486 39bc daaf 18be 4658 41be
000000a0: 3d25 abbe b6a7 7dbe db46 463a cfb4 e8bd
000000b0: cd39 003e 9e4a 62ba 438e 583d 053a ef3d
000000c0: 8573 523d b2ad 78bd c6cb 7a3b 7680 8ebd
000000d0: 7120 0e3d 11fb 3fbd 798b 153e 1b17 bc3c
000000e0: 6c58 27bd b14e 983d 83ca 60be 1b83 d1bc
000000f0: 6503 8b3d 0caf 6d3d 514f 63be 758b 4ebe
00000100: ca44 6e3c 6fc7 123e b173 da3c 08b7 823d
00000110: e089 8bbd 755e 7abc b062 81be 2fb0 5f3d
00000120: 2b26 c23d ce81 563e 1884 a93c 1c83 bbbd
00000130: 56b9 c63d 1207 08bd 5221 8c3d fc50 ef3a
00000140: 4a57 373d 1553 a33d d7af 81bc 47cc cd3d
00000150: a4ee 083e 119b 683e 2dd9 de3d 70e7 9a3d
00000160: 705b 1d3c daec 6fbc 847d 253e cae8 e13d
00000170: 517b 003d 37f9 b43d 48a2 97bd 79de 9b3c
00000180: e9bc 513d 6257 8d3b a992 98bd 68bd 01be
00000190: 4aed d4bd 2d66 f2bc 7667 923c ce36 09bd
000001a0: 1e04 24be d4f2 523d 3fc6 dc3c 0877 363d
000001b0: da85 233f 3b4e 183f 64e2 c63e f5fe cabd
000001c0: 724d f1bd c6e4 34be f7c5 203e 383a d4be
000001d0: 6933 58bd 9bff 3b3d 91d8 1fbe 7f8f 35be
000001e0: 8a29 26be 4358 193e 1b74 393d e504 093e
000001f0: b774 103e 4b7d 143e 5960 383e f115 a63e
00000200: 841e ad3e 974c db3d a773 6bbe 39fc 6e3c
00000210: 8c73 6fbd 11b4 e6bd b3aa ea3d 2da6 2cbf
00000220: 72f7 c9be 55b5 1ebe 8771 f73d 832c a83e
00000230: 62ea 4b3e db64 253e 4444 a43d 46d7 abbe
00000240: 402a 81be 697c 18be 1e14 37bd 96ce 74be
00000250: 3674 e4bd 494f 9abd 8b46 bb3c 783c 2c3d
00000260: 1ef8 da3c 4bbb 0bbe f083 47be ce1a f53d
00000270: 46b5 563d baca 363e 3cf2 173e 1f83 d6bc
00000280: 34b0 de3d 0dde 6c3d 3577 f53d 273d 373d
00000290: b6cb eabc 6aee 31bb 4b39 4ebc 6171 e6bd
000002a0: e224 353d ff95 dc3d bfa5 49bd f4ac 18be
000002b0: d7e2 3ebe d4ed 32be d16d 893c ff2b 85bd
000002c0: 5a3e 5cbd cfbe b83d bfa8 503e 9e8e ae3d
000002d0: ca81 733b 2da6 11be 47f4 75be 2a2f 61bd
000002e0: b7d7 45bd 3795 56be 4a67 06be 8ca1 d53c
000002f0: f7d6 00be 9eb8 3cbd d4cd 53be 6a05 07bd
00000300: 9263 933d 0132 2ebe 13fe f23b 6451 02be
00000310: 0768 7ebe 396c 23bd 7329 0abe ec41 6b3d
00000320: 4792 d53d 6578 003e 48c5 9e3d 58bf 4d3e
00000330: 88d3 3b3d 176f 7d3e 6093 933e 8e3a 6c3d
00000340: 8fe7 e2bd c895 16be 8f30 9b3c fae2 2bbe
00000350: 3bd5 f1bd c93b ba3d 6e7f b3bd 98ee 3bbe
00000360: dc56 9f3b db33 a8bc 5c73 8dbc 2393 cf3c
00000370: 257a 2ebd 2f2d 833d d685 193e 57c0 f53c
00000380: d333 163d 8e15 43bb a122 e7bd 6920 21bd
00000390: de54 563c dac0 85bd a93b 5dba 8872 cf3d
000003a0: 5b25 40bc 02d6 fc3d 9f66 223d 5dcd 5e3d
000003b0: 90b7 b03c 4d0d 05be 97a0 2abe d2d8 6fbe
000003c0: ecfc 3dbc 0e6b aabd a073 13be c5ac d8bd
000003d0: 6af3 d93a 436a 583d ba2c 243c f24e 6c3d
000003e0: 98df 39bd 3c21 e83c 3f89 1bbd 5775 e6bd
000003f0: 7833 7abd ec92 ce3d 9bac 1d3e 1905 bebe

onnx::Conv_123 f4 [16]
0.06100916 -0.7072161 0.31677532 0.98676825 0.24227537 0.20781332 1.113553 0.72491485
-0.4481804 0.21725158 0.16942942 0.5775927 0.74940705 0.13720353 -0.6902548 -0.5692794
00000000: bee4 793d 1d0c 35bf 6030 a23e d89c 7c3f
00000010: 0917 783e 04cd 543e e888 8e3f 0594 393f
00000020: e777 e5be 3377 5e3e e87e 2d3e 1ddd 133f
00000030: 24d9 3f3f 157f 0c3e 8ab4 30bf 4bbc 11bf

onnx::Conv_125 f4 [16, 16, 3, 3]
-0.036922034 0.03312898 0.0012174404 -0.038625885 0.06753474 0.09082617 -0.002227385 0.09601581
0.116486855 0.17421721 -0.034458496 0.041678835 0.03144421 -0.0750243 -0.082259245 0.19559015
-0.03794212 -0.029225608 0.10496788 0.065067574 0.1134954 -0.039459698 -0.010644685 -0.0010534491
-0.10567902 -0.073218375 -0.030153261 -0.055397365 -0.026646955 -0.18683465 -0.2155299 -0.22922432
-0.21706481 0.0957267 0.0381414 0.12538847 -0.005893762 -0.052493982 -0.012193175 0.18456014
0.020238074 0.06100986 0.0975064 -0.036580723 -0.04655496 0.095667556 0.06186426 -0.023068972
0.107062995 0.089513466 0.01041144 0.1865648 0.15518075 0.052227058 0.1383695 0.27543816
0.26239786 0.042195316 0.07276969 0.023649165 -0.036141664 0.11384532 -0.02605856 -0.013046804
0.03862079 0.1359012 -0.19668514 -0.0113282 0.026087986 0.11196572 0.06683386 0.048694775
0.2803293 -0.069646105 -0.14050572 0.037080377 -0.1622055 -0.17992555 0.036367733 -0.17814381
-0.23666365 -0.05857569 -0.16955522 -0.18837892 -0.15257911 -0.08936362 -0.06854892 -0.07037654
-0.01788701 -0.1253318 0.057818748 -0.17246787 0.052185476 0.14987426 -0.11071459 0.12795585
-0.026464034 -0.22777425 -0.09823891 -0.08469876 -0.24469696 -0.18967235 -0.08129763 -0.123545706
-0.11393342 0.15138416 0.039843686 -0.06930196 0.11382548 -0.078404814 0.17809978 -0.13357027
-0.24710134 0.055380028 -0.09921492 -0.07647923 0.032314938 0.03331245 0.0061453385 0.056624595
-0.070567176 -0.036280908 -0.12565215 -0.031274382 -0.14299347 -0.049062617 0.11934401 0.0063657705
-0.011869283 -0.049028516 -0.008582603 0.012456915 -0.022347108 -0.073607594 -0.05188779 -0.28244376
0.06329553 -0.09221665 0.036373217 0.012416175 0.057231195 -0.0024647377 0.012824371 -0.010988859
-0.14373754 0.084847845 0.0454309 -0.22989705 -0.18773298 -0.13671924 -0.042885892 0.050944775
0.09601468 0.09262102 0.2299204 -0.01833843 0.014826966 0.056969993 -0.028372405 -0.021763997
-0.03989906 -0.19445843 0.21120021 -0.0011659261 -0.016026327 0.102027 -0.09043944 -0.09859384
-0.021312186 -0.10102873 -0.029277457 0.056308366 0.030916732 0.085557975 0.014722877 0.02024695
-0.03684098 0.2520984 0.123484746 0.2098557 -0.20285589 -0.3519199 -0.29949582 -0.14633588
0.005575056 -0.021149488 0.12867042 0.028780982 0.048898503 -0.103007026 -0.11099276 -0.075530045
-0.02111967 -0.19523324 0.032766577 -0.05896482 -0.0884931 0.061688606 0.14738354 0.17722556
-0.06500919 -0.111973934 -0.001695315 -0.20477916 -0.06914827 0.03032948 -0.09413422 -0.0772484
-0.17269473 0.035923235 0.109077156 -0.07614035 -0.09859491 0.07579136 -0.17656468 -0.2308803
0.11654209 0.051344953 -0.06387426 0.0696764 -0.04206094 -0.013553562 0.112747565 -0.19291945
-0.10486716 -0.16693379 0.18273067 -0.028737351 -0.23195647 -0.07939444 -0.04461237 -0.15805474
0.0852436 0.08693242 0.12637508 -0.016977932 -0.15683118 0.11813957 -0.09714905 -0.007574657
0.004014804 0.08817954 -0.062724106 -0.044321742 -0.18385546 -0.075259745 0.03347646 0.026009964
0.07325714 0.097984254 0.14829141 0.18438627 0.26991898 -0.16656855 0.01460944 0.019020075
00000000: 8f3b 17bd 41b2 073d 8592 9f3a 2d36 1ebd
00000010: a74f 8a3d 1203 ba3d 52f9 11bb f0a3 c43d
00000020: a990 ee3d ff65 323e 5a24 0dbd 6db7 2a3d
00000030: a5cb 003d 57a6 99bd 8977 a8bd c948 483e
00000040: 3269 1bbd 8b6a efbc 66f9 d63d 2642 853d
00000050: 4770 e83d 7ea0 21bd 0b67 2ebc e313 8aba
00000060: 3e6e d8bd 84f3 95bd f903 f7bc 59e8 62bd
00000070: b74a dabc 9551 3fbe dfb3 5cbe c8b9 6abe
00000080: 3d46 5ebe 5c0c c43d 283a 1c3d d665 003e
00000090: 7620 c1bb ee03 57bd e2c5 47bc 55fd 3c3e
000000a0: 51ca a53c 7ae5 793d 6fb1 c73d abd5 15bd
000000b0: 6ab0 3ebd 5aed c33d 6165 7d3d 24fb bcbc
000000c0: d843 db3d d652 b73d bf94 2a3c d80a 3f3e
000000d0: b4e7 1e3e 0aec 553d bcb0 0d3e 3b06 8d3e
000000e0: 0359 863e ffd4 2c3d 4608 953d e5bb c13c
000000f0: 4809 14bd bc27 e93d c378 d5bc 43c2 55bc
00000100: d530 1e3d af29 0b3e d467 49be ea99 39bc
00000110: 79b6 d53c 494e e53d 31e0 883d 2c74 473d
00000120: 5287 8f3e 9ea2 8ebd bbe0 0fbe 98e1 173d
00000130: 3319 26be 673e 38be 55f6 143d 556b 36be
00000140: f557 72be 10ed 6fbd e29f 2dbe 67e6 40be
00000150: b33d 1cbe 4604 b7bd 6063 8cbd 9321 90bd
00000160: c787 92bc fb56 00be 5ad3 6c3d 6b9b 30be
00000170: 70c0 553d a378 193e 55be e2bd dc06 033e
00000180: 1acb d8bc a73d 69be 7b31 c9bd 8b76 adbd
00000190: d791 7abe 7839 42be 5f7f a6bd 8805 fdbd
000001a0: ed55 e9bd 7304 1b3e 2233 233d 30ee 8dbd
000001b0: 551d e93d b492 a0bd ca5f 363e a5c6 08be
000001c0: 2208 7dbe 2bd6 623d 3131 cbbd 24a1 9cbd
000001d0: ab5c 043d a372 083d d65e c93b 31ef 673d
000001e0: 8685 90bd 4a9b 14bd f5aa 00be 9119 00bd
000001f0: e16c 12be e2f5 48bd a26a f43d f497 d03b
00000200: 6277 42bc 20d2 48bd 0c9e 0cbc 1718 4c3c
00000210: 4811 b7bc 94bf 96bd 4b88 54bd 789c 90be
00000220: 16a1 813d 15dc bcbd 15fc 143d 366d 4b3c
00000230: 426b 6a3d 7087 21bb 501d 523c 9e0a 34bc
00000240: ef2f 13be b5c4 ad3d c015 3a3d 226a 6bbe
00000250: 133d 40be 2100 0cbe 1ea9 2fbd 78ab 503d
00000260: 58a3 c43d 17b0 bd3d 4170 6b3e 7a3a 96bc
00000270: ceec 723c 5e59 693d 3f6d e8bc 694a b2bc
00000280: 326d 23bd 1c20 47be de44 583e fdd1 98ba
00000290: a549 83bc 88f3 d03d 5038 b9bd 91eb c9bd
000002a0: e596 aebc 27e8 cebd 47d7 efbc 9aa3 663d
000002b0: 1645 fd3c 0539 af3d 3938 713c efdc a53c
000002c0: 91e6 16bd 0b13 813e 92e5 fc3d 6ae4 563e
000002d0: 74b9 4fbe d82e b4be 8457 99be 13d9 15be
000002e0: f6ae b63b b141 adbc 2ec2 033e 18c6 eb3c
000002f0: cc49 483d 59f5 d2bd 2c50 e3bd 7faf 9abd
00000300: 2803 adbc 39eb 47be 3f36 063d 1885 71bd
00000310: df3b b5bd 31ad 7c3d b6eb 163e 9e7a 353e
00000320: 8a23 85bd 9752 e5bd 5535 deba a1b1 51be
00000330: 9c9d 8dbd 8875 f83c 71c9 c0bd 6934 9ebd
00000340: e3d6 30be 3e24 133d d863 df3d 79ef 9bbd
00000350: 21ec c9bd 8038 9b3d 5fcd 34be e36b 6cbe
00000360: 9fad ee3d 164f 523d 82d0 82bd 80b2 8e3d
00000370: 1848 2cbd c20f 5ebc 32e8 e63d ad8c 45be
00000380: 98c4 d6bd b1f0 2abe c01d 3b3e 986a ebbc
00000390: ff85 6dbe 8d99 a2bd 76bb 36bd 1ad9 21be
000003a0: 3294 ae3d a009 b23d 7868 013e 4e15 8bbc
000003b0: 5a98 20be 29f3 f13d 15f6 c6bd d434 f8bb
000003c0: 9e8e 833b 7a97 b43d 7f75 80bd b78a 35bd
000003d0: 9b44 3cbe c821 9abd 9d1e 093d d912 d53c
000003e0: d707 963d f8ab c83d b4d9 173e c1cf 3c3e
000003f0: d232 8a3e f290 2abe 6f5c 6f3c fdcf 9b3c

onnx::Conv_126 f4 [16]
0.5410681 0.6528141 0.87282085 1.4851482 -0.49568266 0.73665875 -1.0127722 0.025820851
-0.32110775 -0.058139205 -0.96670926 0.36420158 -0.95003974 -0.09415376 0.017406896 0.6404176
00000000: 7083 0a3f d31e 273f 3071 5f3f 5619 be3f
00000010: 1eca fdbe ab95 3c3f 85a2 81bf 4086 d33c
00000020: 3c68 a4be 6023 6ebd 427a 77bf a178 ba3e
00000030: ce35 73bf b0d3 c0bd e898 8e3c 68f2 233f

onnx::Conv_128 f4 [32, 16, 3, 3]
-0.11395931 -0.08424292 -0.07964567 -0.1813346 -0.047507394 0.0033259846 0.006436996 -0.15311895
0.006921142 -0.102719605 -0.21501352 -0.23310284 0.03678751 0.0006722717 -0.21942319 0.035752516
-0.016304726 -0.060718164 -0.18685876 -0.28171918 -0.09086689 0.033048928 0.09204187 -0.0022762786
0.023838758 0.0014887537 -0.069356196 -0.026255233 -0.13571867 -0.054541063 -0.0066649416 0.13814816
-0.03805003 0.021655478 0.10087951 0.15287387 -0.11252033 0.08559811 0.09952396 -0.103412084
-0.00034848487 0.02444403 -0.22857194 -0.06749192 0.07283532 0.001165595 -0.14928 -0.094518304
-0.06845807 -0.0011643237 -0.023136485 -0.14126383 0.04550176 0.08941559 -0.014536519 -0.057664387
-0.007620237 0.11696937 0.04936178 0.08360575 0.050836474 0.014598652 0.012859013 -0.10292134
0.0437437 0.097323045 -0.03864167 0.17794438 0.099033885 -0.06011833 -0.12795284 0.12229911
0.07351787 -0.11769674 -0.12863766 -0.09450418 -0.017599387 0.015613215 -0.09972284 -0.10238794
-0.029069247 -0.13732298 -0.2160226 -0.07831673 -0.17308857 -0.064227484 -0.12692069 -0.12637901
-0.016395606 -0.08085291 0.13546579 0.14724252 0.08147654 -0.005455277 -0.03448001 0.08290465
-0.02188944 0.028886287 0.007729724 0.001401914 -0.07237513 0.060492396 0.113132305 -0.037604522
0.09030706 -0.021163255 -0.016602758 0.06226258 -0.06123063 -0.03628524 0.01769647 0.044426873
-0.06662469 -0.04568911 0.20328638 0.012939487 0.0020942856 -0.10022793 -0.0699748 0.0061310106
-0.035630282 -0.17177778 -0.020479139 0.003145386 -0.21466832 0.06794428 -0.13834853 -0.0016250409
-0.06447935 -0.13272066 -0.078105055 -0.032897282 -0.30825904 -0.16675994 0.011320425 -0.27401823
-0.22376186 -0.31658164 -0.049585935 -0.17861396 -0.21084586 0.026691485 -0.006698433 -0.10578204
-0.11859145 0.09064074 0.051972266 -0.17248423 0.065564774 0.048640948 -0.13691603 0.12690023
0.2339741 0.0044331313 0.07393766 -0.07389709 0.28207266 -0.08229448 -0.087013036 0.056726296
-0.0766516 -0.27308697 -0.17863299 -0.061737638 0.14008948 -0.31797722 -0.03541086 -0.04329164
-0.16351172 0.04598601 -0.20610069 -0.045911774 0.0111167235 -0.013924839 0.071329534 0.027029788
0.076393984 -0.04720872 -0.08450515 -0.17276181 -0.1944366 -0.13006791 -0.09832534 -0.058868356
-0.07265506 -0.020118088 -0.20466776 -0.151631 0.05327252 0.26523265 0.14937265 -0.032911897
-0.133767 -0.020057933 -0.077846795 0.09085375 -0.08639772 0.026877292 0.15424022 -0.063794024
-0.08171487 -0.24011366 -0.10573363 -0.10623765 -0.059004325 -0.02270501 -0.24594998 0.08600497
0.037107516 0.072211646 0.048642054 0.017947225 -0.0254191 -0.00021437005 0.10078904 0.108599745
0.0979227 -0.12551142 0.016908795 -0.13659413 -0.11478598 -0.03762999 -0.012081144 0.081506304
0.15004408 0.09095433 0.008829711 -0.3125712 0.11064963 -0.18697333 -0.26614854 0.022451516
-0.07838756 -0.02003552 -0.11009933 -0.20754844 -0.29918003 -0.13526447 -0.21882463 -0.16635798
0.0034246666 -0.1699834 0.0757912 0.107456736 -0.020462207 0.103423215 0.27642033 0.14973344
-0.08353258 0.013464381 0.043425176 0.02467236 0.02235003 0.06622642 0.13919556 -0.017013872
00000000: 8063 e9bd 8d87 acbd 451d a3bd c7af 39be
00000010: 1d97 42bd c3f8 593b 70ed d23b 37cb 1cbe
00000020: bfca e23b a85e d2bd 812c 5cbe 83b2 6ebe
00000030: 80ae 163d 643b 303a 79b0 60be 3b71 123d
00000040: 7d91 85bc 9cb3 78bd e757 3fbe 7f3d 90be
00000050: 6c18 babd 505e 073d 7380 bc3d 9e2d 15bb
00000060: 8049 c33c 4922 c33a 9f0a 8ebd 3715 d7bc
00000070: d6f9 0abe 7366 5fbd 9565 dabb b676 0d3e
00000080: 59da 1bbd d466 b13c eb99 ce3d f88a 1c3e
00000090: 0f71 e6bd 104e af3d 38d3 cb3d b7c9 d3bd
000000a0: d9b4 b6b9 d93e c83c c30e 6abe 3439 8abd
000000b0: af2a 953d e1c6 983a dbdc 18be d092 c1bd
000000c0: bf33 8cbd 389c 98ba ba88 bdbc 77a7 10be
000000d0: 0e60 3a3d 851f b73d 942a 6ebc 7e31 6cbd
000000e0: 2eb3 f9bb a38d ef3d 942f 4a3d 7e39 ab3d
000000f0: e839 503d 2f2f 6f3c 9cae 523c 6cc8 d2bd
00000100: 982c 333d 4e51 c73d ba46 1ebd 0d37 363e
00000110: 47d2 ca3d a33e 76bd 1206 03be f577 fa3d
00000120: 8990 963d fd0a f1bd 97b9 03be 688b c1bd
00000130: 972c 90bc 92ce 7f3c 7d3b ccbd c5b0 d1bd
00000140: a122 eebc 659e 0cbe 0735 5dbe 8664 a0bd
00000150: 213e 31be b389 83bd 7ff7 01be 8069 01be
00000160: 1450 86bc 3696 a5bd 8bb7 0a3e bec6 163e
00000170: 2cdd a63d 2ec2 b2bb e93a 0dbd eac9 a93d
00000180: 7c51 b3bc efa2 ec3c a049 fd3b 6ec0 b73a
00000190: 6a39 94bd e0c6 773d e9b1 e73d 3307 1abd
000001a0: e8f2 b83d 905e adbc 8202 88bc 0c07 7f3d
000001b0: f8cc 7abd d59f 14bd 30f8 903c f4f8 353d
000001c0: 8772 88bd 8124 3bbd 4e2a 503e 2400 543c
000001d0: 4840 093b 4d44 cdbd f34e 8fbd a5e6 c83b
000001e0: 0ff1 11bd 84e6 2fbe dec3 a7bc d222 4e3b
000001f0: 03d2 5bbe 5f26 8b3d 3dab 0dbe 53ff d4ba
00000200: c00d 84bd ede7 07be 8bf5 9fbd 4dbf 06bd
00000210: 21d4 9dbe 1ec3 2abe 4e79 393c 1e4c 8cbe
00000220: d421 65be fd16 a2be 9f1a 4bbd 94e6 36be
00000230: fae7 57be 1aa8 da3c 877e dbbb 41a4 d8bd
00000240: 13e0 f2bd daa1 b93d dfe0 543d b59f 30be
00000250: d346 863d bb3b 473d b733 0cbe 22f2 013e
00000260: e896 6f3e cd43 913b a16c 973d 5c57 97bd
00000270: d46b 903e 028a a8bd e433 b2bd d559 683d
00000280: 84fb 9cbd 0ed2 8bbe 91eb 36be 9be0 7cbd
00000290: 9e73 0f3e e9cd a2be fa0a 11bd 9352 31bd
000002a0: 9e6f 27be d45b 3c3d 0f0c 53be fc0d 3cbd
000002b0: eb22 363c 0225 64bc 3815 923d 936d dd3c
000002c0: 7374 9c3d ee5d 41bd 0911 adbd 79e8 30be
000002d0: 631a 47be 8630 05be cc5e c9bd f21f 71bd
000002e0: 2dcc 94bd b0ce a4bc 6d94 51be 2845 1bbe
000002f0: 4934 5a3d 93cc 873e 25f5 183e a0ce 06bd
00000300: 37fa 08be 8950 a4bc 246e 9fbd 8811 ba3d
00000310: 4af1 b0bd c42d dc3c 26f1 1d3e 71a6 82bd
00000320: 205a a7bd 5be0 75be e08a d8bd 2093 d9bd
00000330: 85ae 71bd dbff b9bc 50da 7bbe 6023 b03d
00000340: 0dfe 173d b3e3 933d e43c 473d 0f06 933c
00000350: b73b d0bc 86c8 60b9 7c6a ce3d 8b69 de3d
00000360: b28b c83d 1186 00be 5084 8a3c 55df 0bbe
00000370: e914 ebbd e821 1abd feef 45bc c7ec a63d
00000380: 28a5 193e 4446 ba3d 7eaa 103c 5509 a0be
00000390: 469c e23d f075 3fbe 9f44 88be 3eec b73c
000003a0: a889 a0bd 8821 a4bc c27b e1bd 9487 54be
000003b0: 202e 99be c582 0abe 9013 60be bf59 2abe
000003c0: 5f70 603b 2110 2ebe 6b38 9b3d 4712 dc3d
000003d0: 5ca0 a7bc 8dcf d33d f786 8d3e b953 193e
000003e0: 2113 abbd b599 5c3c 99de 313d b01d ca3c
000003f0: 6917 b73c b8a1 873d 4889 0e3e ad60 8bbc

onnx::Conv_129 f4 [32]
1.2301167 0.20272091 0.5498779 0.1705496 0.3452205 0.36840332 0.3456018 -0.86299616
0.10542908 0.42579126 -0.14076324 0.519492 -0.46620825 -0.7932088 0.38139442 1.0970471
0.62862825 -0.20373383 0.1647371 0.5374204 0.5840583 0.22696719 -0.64002097 -0.017785192
0.08303034 0.17219155 -0.2700119 -0.3115859 -0.5968801 0.14077562 -0.24014919 -0.38100344
00000000: 7774 9d3f 1296 4f3e ccc4 0c3f 8ea4 2e3e
00000010: bec0 b03e 5c9f bc3e b8f2 b03e 51ed 5cbf
00000020: 34eb d73d 5001 da3e 3d24 10be 6dfd 043f
00000030: d9b2 eebe bb0f 4bbf 2146 c33e 0a6c 8c3f
00000040: c8ed 203f 9a9f 50be d8b0 283e 6294 093f
00000050: d884 153f 166a 683e 6ad8 23bf 40b2 91bc
00000060: d00b aa3d fb52 303e 003f 8abe 3088 9fbe
00000070: 22cd 18bf 7c27 103e abe9 75be e212 c3be

onnx::Conv_131 f4 [32, 32, 3, 3]
0.20008996 0.11177796 0.22774963 0.035103418 -0.061176494 0.01662764 -0.23209383 -0.09374909
-0.20028637 -0.14713296 -0.27988824 0.038900036 -0.002191066 -0.00040088737 0.06561084 0.30132622
-0.022222143 -0.15467113 0.09628692 0.07357769 0.06704728 0.06344502 0.06689835 0.13359962
0.09023194 0.15740049 0.046514045 -0.15645942 -0.13131285 -0.012860244 0.03539289 0.028256504
0.14386135 0.12275138 -0.0133939665 0.09839419 0.104379125 -0.011571459 -0.039811756 -0.082044944
-0.03503382 -0.10268935 -0.048747264 0.013673097 0.07844955 -0.08839409 -0.24128088 0.060239766
0.13218422 0.02252969 0.116832525 -0.03528015 -0.106858395 -0.14143099 0.24220598 0.17714638
0.13913 0.035512593 0.079958774 -0.022792982 0.063277885 -0.0374761 0.21970901 0.032777056
0.02528873 -0.098996215 -0.108842865 -0.051782664 0.005625425 0.0042901253 0.10022681 0.15336083
-0.048124637 0.04183677 -0.1328776 -0.10669285 -0.1228133 0.0026391589 0.11536386 -0.19709559
-0.122555025 -0.0044572935 -0.23876213 0.13908894 0.00574441 -0.09165158 -0.011149661 0.16804622
-0.07104108 0.054718316 -0.18352912 -0.07583845 -0.056000907 -0.062050812 -0.015846526 0.0771917
0.08441916 0.030031102 -0.06623964 -0.017302066 0.017029732 -0.06892543 -0.0037506039 0.00048811513
0.039424 -0.06240826 -0.042202003 -0.04849515 -0.15857168 -0.1341012 -0.09468507 -0.17164004
0.020879418 -0.09016948 -0.024842298 0.1085672 0.004987249 0.09566117 0.07656576 0.10354011
0.16459244 -0.11553012 -0.03132802 -0.12542848 -0.20832129 -0.07782962 0.058967885 0.048403934
-0.13558494 0.027676616 -0.18707988 -0.06889893 -0.26537868 0.05984423 0.07574914 0.16449644
0.23337565 -0.07767189 -0.11164331 -0.050511397 0.04370602 -0.00536282 0.02854228 0.07621931
0.084327325 0.14809896 0.17120948 -0.06760367 0.052330818 0.01272458 0.15653554 -0.092143334
0.05521078 -0.1881167 -0.1187801 -0.076000735 -0.091542214 0.060223103 -0.09762388 -0.24778642
-0.16714206 -0.07801522 0.029115815 -0.06971681 -0.020697268 -0.108909614 -0.06630326 -0.0019669835
0.2038688 0.19687507 0.1828362 -0.008499388 0.16788901 -0.023552576 0.1408362 0.094798975
0.15210785 -0.22838986 -0.23191121 -0.09834371 -0.02103212 -0.11203989 -0.15238507 -0.012931936
-0.0074001965 0.03218192 0.0666027 0.018753832 -0.052794702 0.17714645 0.05859997 0.16241635
0.040215656 0.077795625 0.018681942 -0.05902731 0.0186773 0.1163301 0.09075528 0.05290674
0.0665697 -0.036897615 -0.052658726 -0.15966044 0.06264674 0.011551197 0.035749517 -0.14797801
-0.03558084 -0.0466534 -0.082540676 -0.11552962 -0.06149494 0.23012719 -0.038662497 -0.22148065
-0.20730305 -0.2496129 -0.0073151 -0.09408463 0.054442625 -0.13011314 -0.28953493 -0.017383536
0.037846804 -0.18102656 -0.081095025 -0.09885139 -0.12995382 -0.0199038 -0.13231674 -0.21673316
-0.23617142 -0.34288236 -0.08059596 -0.05194679 -0.011014812 0.041733664 0.09529905 0.060720127
0.09172189 -0.09613384 0.12947941 0.09869223 0.16747753 -0.016271302 -0.053234473 0.124284685
0.18614814 0.27670228 -0.07114309 0.29394376 -0.07883793 0.09485308 -0.078160115 0.06533511
00000000: 62e4 4c3e d8eb e43d 3337 693e 9ac8 0f3d
00000010: 3494 7abd b036 883c 01aa 6dbe 86ff bfbd
00000020: df17 4dbe 06aa 16be 834d 8fbe a555 1f3d
00000030: fd97 0fbb 312e d2b9 fa5e 863d 6e47 9a3e
00000040: 360b b6bc 1c62 1ebe 1432 c53d e6af 963d
00000050: 1650 893d 76ef 813d 0102 893d 57ce 083e
00000060: 86cb b83d 982d 213e 8385 3e3d e636 20be
00000070: e076 06be c6b3 52bc 23f8 103d 2f7a e73c
00000080: 6450 133e 1365 fb3d 5e72 5bbc e582 c93d
00000090: b9c4 d53d 3796 3dbc a711 23bd 2e07 a8bd
000000a0: 9f7f 0fbd cb4e d2bd 36ab 47bd 2005 603c
000000b0: 28aa a03d f607 b5bd 5612 77be f9bd 763d
000000c0: 4d5b 073e 2f90 b83c e445 ef3d eb81 10bd
000000d0: 93d8 dabd 49d3 10be d804 783e dc65 353e
000000e0: 1878 0e3e a775 113d 6dc1 a33d 59b8 babc
000000f0: d697 813d 8a80 19bd 66fb 603e 3c41 063d
00000100: 502a cf3c 87be cabd 02e9 debd 0f1a 54bd
00000110: 7c55 b83b 2e94 8c3b b743 cd3d 9f0a 1d3e
00000120: 571e 45bd 085d 2b3d 1111 08be c881 dabd
00000130: 8a85 fbbd bdf5 2c3b e343 ec3d 6dd3 49be
00000140: 21fe fabd 7d0e 92bb 0f7e 74be 556d 0e3e
00000150: 9b3b bc3b d3b3 bbbd 11ad 36bc 4f14 2c3e
00000160: fc7d 91bd 5020 603d 0fef 3bbe 3051 9bbd
00000170: 3561 65bd fe28 7ebd 93d0 81bc af16 9e3d
00000180: f4e3 ac3d c903 f63c a6a8 87bd 10bd 8dbc
00000190: f081 8b3c c728 8dbd b1cc 75bb b4e9 ff39
000001a0: 0f7b 213d ce9f 7fbd 02dc 2cbd daa2 46bd
000001b0: 9d60 22be d351 09be 3fea c1bd 68c2 2fbe
000001c0: 500b ab3c c7aa b8bd 1382 cbbc 7b58 de3d
000001d0: 146c a33b 01ea c33d 82ce 9c3d d60c d43d
000001e0: ec8a 283e 0e9b ecbd cf51 00bd 5370 00be
000001f0: 2d52 55be 2365 9fbd 4f88 713d 3443 463d
00000200: c7d6 0abe 12ba e23c de91 3fbe e21a 8dbd
00000210: b7df 87be 391f 753d 5d22 9b3d c171 283e
00000220: 07fa 6e3e 7112 9fbd 3fa5 e4bd 0ae5 4ebd
00000230: 1505 333d 98ba afbb 80d1 e93c df18 9c3d
00000240: ceb3 ac3d 41a7 173e 8a51 2f3e cb73 8abd
00000250: d758 563d c27a 503c da4a 203e a5b5 bcbd
00000260: b324 623d aaa1 40be fb42 f3bd 46a6 9bbd
00000270: 7c7a bbbd 80ac 763d 07ef c7bd b9bb 7dbe
00000280: 4a27 2bbe 72c6 9fbd 4a84 ee3c b0c7 8ebd
00000290: 518d a9bc 010c dfbd 01ca 87bd 82e8 00bb
000002a0: fcc2 503e 9e99 493e 6a39 3b3e 0441 0bbc
000002b0: 19eb 2b3e 55f1 c0bc 5d37 103e f725 c23d
000002c0: 29c2 1b3e 08df 69be 227a 6dbe 6d68 c9bd
000002d0: 8d4b acbc 2b75 e5bd d50a 1cbe 79e0 53bc
000002e0: 597d f2bb 30d1 033d ff66 883d a3a1 993c
000002f0: 423f 58bd e165 353e 8606 703d 7950 263e
00000300: 2cb9 243d 5053 9f3d df0a 993c 9fc6 71bd
00000310: 2301 993c 7a3e ee3d e7dd b93d bdb4 583d
00000320: b255 883d f421 17bd adb0 57bd 077e 23be
00000330: ef4c 803d 3b41 3d3c 166e 123d 8c87 17be
00000340: 37bd 11bd a317 3fbd 160b a9bd cb9a ecbd
00000350: 1ee2 7bbd 76a6 6b3e 915c 1ebd d3cb 62be
00000360: 4047 54be 869a 7fbe 82b3 efbb 71af c0bd
00000370: 3bff 5e3d 613c 05be ec3d 94be eb67 8ebc
00000380: 4005 1b3d 075f 39be 2615 a6bd 9972 cabd
00000390: 9d12 05be 4b0d a3bc 0a7e 07be 4cef 5dbe
000003a0: ecd6 71be 478e afbe 7f0f a5bd 28c6 54bd
000003b0: 7877 34bc ebf0 2a3d 262c c33d abb5 783d
000003c0: b0d8 bb3d d2e1 c4bd 4096 043e 271f ca3d
000003d0: 3b7f 2b3e 654b 85bc 640c 5abd f888 fe3d
000003e0: 9e9d 3e3e ecab 8d3e 78b3 91bd cc7f 963e
000003f0: c875 a1bd 5542 c23d 6912 a0bd 6ace 853d

onnx::Conv_132 f4 [32]
0.17894134 -0.1803048 -0.2245394 -0.72476 -1.1451544 -0.23241225 0.39214212 0.086480856
-0.0055000186 -0.79791486 -0.08010861 -0.5502147 -0.014549017 -0.30258486 0.4726961 -0.9958142
0.077082634 0.24188238 -0.28363618 -0.16114879 -0.21438679 -0.8665184 -0.02656138 0.1530754
-0.7524816 -0.9697063 -0.79476404 -1.3981421 -0.50278103 -0.6423399 1.0741556 0.19340608
00000000: 663c 373e d2a1 38be a8ed 65be df89 39bf
00000010: 6b94 92bf 7afd 6dbe dac6 c83e e01c b13d
00000020: 8039 b4bb 2644 4cbf fc0f a4bd dfda 0cbf
00000030: 005f 6ebc 67ec 9abe 3905 f23e aeed 7ebf
00000040: 80dd 9d3d 04b0 773e c338 91be 3004 25be
00000050: 3688 5bbe 26d4 5dbf 4097 d9bc ccbf 1c3e
00000060: a2a2 40bf ac3e 78bf a875 4bbf 52f6 b2bf
00000070: 42b6 00bf 6370 24bf ee7d 893f 3e0c 463e
