training_quantization/models/gate_classifier_model.pt (torch, 284614 bytes, 115 tensors)

conv_camera_layer_1.weight f4 [4, 1, 5, 5]
-0.3552994 -0.26168698 -0.31749696 -0.18503208 -0.26017982 -0.22325368 -0.21307018 -0.10213777
-0.08347419 -0.14014407 -0.027591113 -0.032783583 0.09460647 0.14919282 0.0058663725 0.011830457
0.15905425 0.235397 0.22107984 0.353287 0.066586204 0.08454405 0.27397186 0.3022732
0.19286563 0.08220906 0.058775894 -0.10682829 0.007143367 -0.33467686 0.19859849 0.027393851
-0.13651812 -0.13018967 -0.30648446 0.23247959 0.27699602 0.1498905 0.16425389 0.013154886
0.06683495 0.10228464 0.21363138 0.26818955 0.2071374 0.034565784 0.13666026 0.3467358
0.08310591 0.33254498 -0.16850163 0.20108554 0.012588546 0.21015115 -0.014557393 0.17246431
0.25138482 -0.11757048 0.114155374 0.025544195 0.29414645 -0.17100619 -0.084024906 -0.11234543
0.16269407 -0.0888035 -0.030090868 0.06600897 0.12469302 0.33090925 0.31109163 0.16523486
0.22876395 0.17941193 0.32078892 -0.16634423 -0.02129653 -0.105851896 0.17163137 0.23903398
-0.1395219 -0.2370686 -0.1820596 0.043869983 0.28711483 -0.15009399 -0.23219544 -0.15793575
0.059508592 0.36036596 -0.06641387 -0.25764182 -0.12700748 0.25606266 0.25011322 -0.16824193
0.01045162 -0.16741817 0.16149655 0.3723624
00000000: cee9 b5be d6fb 85be f68e a2be 0d79 3dbe
00000010: 4a36 85be 9d9c 64be 122f 5abe 9b2d d1bd
00000020: 84f4 aabd ed81 0fbe c206 e2bc 1448 06bd
00000030: 09c1 c13d 01c6 183e b33a c03b 88d4 413c
00000040: 1edf 223e e90b 713e c162 623e 09e2 b43e
00000050: 595e 883d 6e25 ad3d 0a46 8c3e 8ec3 9a3e
00000060: 917e 453e 395d a83d febe 703d cac8 dabd
00000070: e812 ea3b c45a abbe 675d 4b3e 1269 e03c
00000080: 68cb 0bbe 7150 05be 88eb 9cbe 210f 6e3e
00000090: 6cd2 8d3e e57c 193e 2c32 283e 9787 573c
000000a0: c3e0 883d 9c7a d13d 2fc2 5a3e 2450 893e
000000b0: d41b 543e da94 0d3d abf0 0b3e 5b87 b13e
000000c0: 6e33 aa3d 5643 aa3e b18b 2cbe 5ee9 4d3e
000000d0: 3040 4e3c dd31 573e 2282 6ebc 7c9a 303e
000000e0: 83b5 803e cbc8 f0bd 4bca e93d 0f42 d13c
000000f0: 5d9a 963e 3f1c 2fbe 4015 acbd 5c15 e6bd
00000100: 4699 263e 9cde b5bd 2081 f6bc b62f 873d
00000110: 0e5f ff3d f06c a93e 6747 9f3e 5433 293e
00000120: 1941 6a3e c3b7 373e 723e a43e 2456 2abe
00000130: 0f76 aebc e1c8 d8bd 22c0 2f3e 53c5 743e
00000140: d4de 0ebe 1cc2 72be d56d 3abe 03b1 333d
00000150: b700 933e 3db2 19be a4c4 6dbe e9b9 21be
00000160: 48bf 733d e381 b83e ff03 88bd a1e9 83be
00000170: 400e 02be a51a 833e d70e 803e 9d47 2cbe
00000180: 463d 2b3c ab6f 2bbe 5a5f 253e 49a6 be3e

conv_camera_layer_1.bias f4 [4]
0.0063868403 -0.0006055173 -0.0004141836 -0.024585595
00000000: b348 d13b 94bb 1eba c826 d9b9 bb67 c9bc

bn_camera_1.weight f4 [4]
0.5074342 0.8213275 0.895522 0.7384712
00000000: 35e7 013f 8542 523f ee40 653f 730c 3d3f

bn_camera_1.bias f4 [4]
0.015831608 -0.31342813 -0.1358151 0.018707613
00000000: 4ab1 813c a779 a0be 1d13 0bbe b540 993c

bn_camera_1.running_mean f4 [4]
-0.048839916 6.324647 7.640909 0.072058804
00000000: 5d0c 48bd 8263 ca40 5482 f440 9193 933d

bn_camera_1.running_var f4 [4]
3.0464134 37.799118 53.78329 2.291392
00000000: 70f8 4240 4c32 1742 1722 5742 2ba6 1240

camera_block_1.conv1.weight f4 [4, 4, 3, 3]
-0.19808672 -0.16095045 -0.14278606 0.35263327 0.49354047 0.13719493 -0.15000503 0.15752642
-0.12720527 0.056799907 0.19361115 0.2573735 -0.21060942 -0.38154602 -0.0742351 0.24080226
-0.0034666918 -0.09826172 0.17609827 0.12771745 0.25978956 -0.32282937 -0.15626505 0.0053405454
0.007847637 -0.09127589 0.08003432 -0.076245174 -0.17544387 -0.0007271976 0.13571508 0.1218484
0.15789066 -0.011823901 -0.11224153 -0.19843185 0.31408554 0.27554974 -0.2214514 -0.010281238
0.19169135 0.113868795 -0.21743461 -0.21144307 -0.102292664 -0.13065025 -0.08616728 -0.019747242
0.025091494 -0.090136334 -0.21856058 0.34128717 0.3022525 -0.0059093414 0.18938684 -0.17137994
0.023621283 -0.05472168 -0.27577728 -0.16491492 0.23049745 0.063982114 -0.07086089 0.38527423
0.34463486 -0.05987958 0.21733752 0.22476856 0.10465413 0.11371769 0.07222549 -0.14989312
0.10725399 -0.017607182 -0.09127996 -0.09857785 -0.019157523 -0.0005870312 -0.046528816 0.2986484
0.5816552 0.0055282656 0.064758115 0.30643624 0.2438385 0.2465293 0.21738216 0.05039304
-0.21009263 -0.242566 0.2914348 0.214334 0.12939185 0.13332246 -0.12094028 -0.025898488
-0.20003693 -0.38948154 -0.34063494 0.018802317 0.03177353 0.008371078 -0.08791981 -0.05728974
-0.11583678 -0.029000582 0.06287903 0.05835921 -0.25338078 -0.048597798 0.06155422 -0.25376958
0.07188543 0.1540764 -0.10016924 0.061369617 0.15217458 0.09743186 -0.007945788 0.09619144
-0.022608045 -0.05636408 0.058037177 -0.081730455 0.011461629 -0.06771813 0.16862847 -0.05683031
0.07088947 0.24764073 -0.17819048 -0.060977247 -0.23240967 -0.24359147 0.13557693 -0.6977477
-0.06446314 0.0748966 -0.21410005 0.2655962 0.3279794 -0.29535747 0.34392783 0.4124636
00000000: 3fd7 4abe 32d0 24be 8236 12be 598c b43e
00000010: 56b1 fc3e d47c 0c3e eb9a 19be 9b4e 213e
00000020: 1942 02be 05a7 683d 0042 463e 76c6 833e
00000030: ffa9 57be 005a c3be 9208 98bd de94 763e
00000040: 7031 63bb 713d c9bd 1b53 343e 5dc8 023e
00000050: 2303 853e e449 a5be f203 20be beff ae3b
00000060: 6093 003c dbee babd 09e9 a33d 6e26 9cbd
00000070: 8fa7 33be 68a1 3eba e5f8 0a3e a78b f93d
00000080: 17ae 213e 09b9 41bc e3de e5bd b831 4bbe
00000090: d2cf a03e db14 8d3e 28c4 62be a372 28bc
000000a0: bd4a 443e 0b34 e93d 2ea7 5ebe 8884 58be
000000b0: d17e d1bd 2ec9 05be 7978 b0bd f8c4 a1bc
000000c0: ad8c cd3c 6699 b8bd 58ce 5fbe 31bd ae3e
000000d0: d7c0 9a3e 26a3 c1bb a0ee 413e 397e 2fbe
000000e0: 6c81 c13c d723 60bd ae32 8dbe 75df 28be
000000f0: 8607 6c3e 0e09 833d 841f 91bd aa42 c53e
00000100: fb73 b03e 4a44 75bd ba8d 5e3e bb29 663e
00000110: e854 d63d d2e4 e83d f5ea 933d 957d 19be
00000120: fba7 db3d f03c 90bc fdf0 babd 2fe3 c9bd
00000130: 3df0 9cbc ffe2 19ba 0095 3ebd 71e8 983e
00000140: 5be7 143f 7426 b53b e79f 843d 36e5 9c3e
00000150: cdb0 793e 2d72 7c3e 6e99 5e3e ef68 4e3d
00000160: 8622 57be 3963 78be f136 953e 5f7a 5b3e
00000170: 4c7f 043e af85 083e 8aaf f7bd 1129 d4bc
00000180: 7bd6 4cbe 206a c7be b467 aebe 5107 9a3c
00000190: f624 023d d926 093c 4d0f b4bd a5a8 6abd
000001a0: d53b edbd a192 edbc b9c6 803d 110a 6f3d
000001b0: 20bb 81be 7c0e 47bd 4720 7c3d 16ee 81be
000001c0: ab38 933d 34c6 1d3e 8825 cdbd b55e 7b3d
000001d0: a7d3 1b3e 5b8a c73d 0d2f 02bc 0500 c53d
000001e0: 8234 b9bc 06de 66bd 64b8 6d3d 4c62 a7bd
000001f0: 8ec9 3b3c ceaf 8abd f1ac 2c3e e6c6 68bd
00000200: 802e 913d 8895 7d3e 9177 36be 47c3 79bd
00000210: cdfc 6dbe 0b70 79be aed4 0a3e 989f 32bf
00000220: 4005 84bd 6363 993d 0b3d 5bbe 3afc 873e
00000230: eaec a73e 1839 97be 4f17 b03e 6e2e d33e

camera_block_1.conv1.bias f4 [4]
-0.0017217764 -0.0018241445 0.00026817375 0.003676054
00000000: 3bad e1ba 2218 efba ac99 8c39 f4e9 703b

camera_block_1.conv2.weight f4 [4, 4, 3, 3]
0.28567213 -0.3572311 0.07676902 -0.07070103 0.31633532 -0.23354803 -0.1007456 -0.0028895428
0.042143162 -0.012639374 -0.22422545 0.1661199 0.048243742 0.27949935 -0.42016062 -0.26890963
-0.0685843 0.2700366 0.22975205 -0.09044533 -0.108277425 0.023985328 0.0172713 -0.072528355
-0.15671062 -0.051139276 0.15554352 -0.024128854 -0.3211291 -0.05800804 0.05608969 0.28762016
-0.0038309875 -0.05174088 0.010743449 0.05615631 0.0728287 0.037410688 -0.30051252 0.19856307
-0.11898293 -0.15764517 0.22024035 0.17322184 -0.037632827 0.2901708 0.103927135 0.24466842
-0.076225966 -0.18658356 -0.27964354 0.18763563 -0.029360818 -0.11112496 0.26513177 -0.23510306
-0.014611707 0.069162816 -0.28479034 -0.23119445 0.21188213 0.11710759 0.14398956 -0.15670961
-0.3469496 -0.0007723314 0.0028835977 -0.2615877 -0.47393525 0.012154941 -0.024665102 -0.045272008
0.03593763 -0.014880245 -0.23913568 0.114237875 -0.2317065 -0.3106579 0.12580143 0.09628761
-0.40146616 -0.028235821 0.012524802 0.12045441 0.042591084 0.30899838 0.2941718 -0.0035738756
0.115271464 0.42560065 -0.13752319 -0.26455906 -0.27337512 -0.009292681 -0.060752016 -0.28450334
0.20449626 0.0008237266 -0.009759193 -0.11280514 0.087285385 0.1456282 0.07753387 0.2845521
0.13372637 0.1214467 0.15267794 0.38681805 -0.07286407 0.21957998 -0.12635373 -0.20997865
-0.07532516 0.25986704 0.076708764 0.18288338 -0.28497875 -0.026359526 -0.036484197 -0.105376564
-0.03623125 -0.17039175 0.26480922 0.057919335 0.1782801 -0.19228572 -0.12571982 -0.16514121
0.24902529 -0.07735997 0.40313187 -0.20773378 0.24212892 -0.23217544 -0.058838952 -0.06422118
-0.08329464 -0.050230548 -0.34703112 0.22001776 0.121747546 0.39661178 -0.12849812 -0.09500019
00000000: 9e43 923e ffe6 b6be 1339 9d3d b4cb 90bd
00000010: b4f6 a13e 3727 6fbe b653 cebd 7c5e 3dbb
00000020: 4f9e 2c3d 6015 4fbc 5b9b 65be 561b 2a3e
00000030: 3b9b 453d 8a1a 8f3e 4b1f d7be 86ae 89be
00000040: ed75 8cbd 3d42 8a3e 1f44 6b3e 673b b9bd
00000050: 8ec0 ddbd e17c c43c 8b7c 8d3c bf89 94bd
00000060: c078 20be 6b77 51bd cd46 1f3e e0a9 c5bc
00000070: 096b a4be d799 6dbd 4ebe 653d f342 933e
00000080: 4e11 7bbb 3fee 53bd 4b05 303c 2904 663d
00000090: 3727 953d f33b 193d c7dc 99be 1e54 4b3e
000000a0: 53ad f3bd bc6d 21be b086 613e 1161 313e
000000b0: e124 1abd 4491 943e c0d7 d43d 5c8a 7a3e
000000c0: 5c1c 9cbd c30f 3fbe 702d 8fbe 8e23 403e
000000d0: 1986 f0bc 7c95 e3bd 5abf 873e dbbe 70be
000000e0: f165 6fbc 3ca5 8d3d 0ad0 91be 3dbe 6cbe
000000f0: a1f7 583e 1bd6 ef3d 0072 133e 7c78 20be
00000100: 61a3 b1be 4876 4aba befa 3c3b d3ee 85be
00000110: a4a7 f2be 8525 473c 780e cabc 246f 39bd
00000120: 5633 133d 45cc 73bc fcdf 74be 8cf5 e93d
00000130: 7844 6dbe 8d0e 9fbe 17d2 003e 7032 c53d
00000140: f98c cdbe cf4e e7bc d434 4d3c cdb0 f63d
00000150: fd73 2e3d 0935 9e3e b09d 963e af37 6abb
00000160: 7213 ec3d 54e8 d93e e1d2 0cbe 4974 87be
00000170: d3f7 8bbe 5440 18bc 1bd7 78bd 6caa 91be
00000180: 7867 513e 5bef 573a 06e5 1fbc 6206 e7bd
00000190: aec2 b23d 8f1f 153e 14ca 9e3d d0b0 913e
000001a0: 91ef 083e 0cb9 f83d 9b57 1c3e 040d c63e
000001b0: c239 95bd 93d9 603e df62 01be a504 57be
000001c0: 1444 9abd 4b0d 853e 7c19 9d3d c845 3b3e
000001d0: bce8 91be efef d7bc 7470 15bd abcf d7bd
000001e0: 3867 14bd 2d7b 2ebe 1395 873e d33c 6d3d
000001f0: 0f8f 363e 8ce6 44be b2bc 00be c71a 29be
00000200: 7c00 7f3e e76e 9ebd 4d67 ce3e 2ab8 54be
00000210: a5f0 773e 66bf 6dbe 1d01 71bd 6586 83bd
00000220: 6196 aabd 8cbe 4dbd 10ae b1be 564c 613e
00000230: c756 f93d b310 cb3e 0395 03be 768f c2bd

camera_block_1.conv2.bias f4 [4]
0.001812339 -0.0031186137 0.0011800113 0.00235062
00000000: 018c ed3a a861 4cbb 9caa 9a3a dc0c 1a3b

camera_block_1.bn1.weight f4 [4]
0.747493 0.6340192 0.45440012 0.884666
00000000: b45b 3f3f 154f 223f 22a7 e83e 7979 623f

camera_block_1.bn1.bias f4 [4]
0.0940706 0.3261125 0.07494528 0.06909666
00000000: 16a8 c03d 38f8 a63e e97c 993d 8d82 8d3d

camera_block_1.bn1.running_mean f4 [4]
0.11058147 0.29885396 0.113546565 0.056852907
00000000: 8a78 e23d 6303 993e 1a8b e83d 98de 683d

camera_block_1.bn1.running_var f4 [4]
0.2799369 0.4696973 0.0873119 0.7150963
00000000: e453 8f3e 2a7c f03e 95d0 b23d 8d10 373f

camera_block_1.bn2.weight f4 [4]
0.99938375 0.9136244 0.64848644 0.8427182
00000000: 9dd7 7f3f 4ae3 693f 3503 263f 61bc 573f

camera_block_1.bn2.bias f4 [4]
-0.32819375 -0.18263169 0.37734547 -0.08144656
00000000: 0309 a8be cd03 3bbe 6d33 c13e 74cd a6bd

camera_block_1.bn2.running_mean f4 [4]
-0.088554956 -0.24071406 0.34898293 -0.019987624
00000000: 4d5c b5bd bf7d 76be e4ad b23e 16bd a3bc

camera_block_1.bn2.running_var f4 [4]
0.0760939 0.49771568 0.6224238 0.12216137
00000000: 1ed7 9b3d 97d4 fe3e 2b57 1f3f be2f fa3d

tof_layer_1.weight f4 [4, 1, 3, 3]
-0.34908545 -0.20386903 0.23878728 0.300456 0.09662942 0.19118007 0.2677233 -0.2928256
-0.22940671 0.13263904 -0.0023098737 0.41002297 -0.13615811 -0.26275042 0.44019243 -0.19076616
0.12177434 0.38615042 -0.01215163 0.08076894 -0.37115178 0.07944143 0.21719562 0.10077429
0.1767113 -0.29736492 -0.4827601 0.14779834 0.09016216 0.24679093 0.048291255 -0.046671998
-0.11546873 -0.46846348 -0.34990978 0.34710658
00000000: 54bb b2be 0bc3 50be a784 743e 5ed5 993e
00000010: a5e5 c53d b5c4 433e 0713 893e 3ded 95be
00000020: 98e9 6abe 87d2 073e 4061 17bb 88ee d13e
00000030: 086d 0bbe 3987 86be e760 e13e 3458 43be
00000040: d364 f93d 82b5 c53e a117 47bc 306a a53d
00000050: 9b07 bebe 30b2 a23d 8768 5e3e c062 ce3d
00000060: cff3 343e 3740 98be 552c f7be 7358 173e
00000070: f0a6 b83d c3b6 7c3e 0dcd 453d 232b 3fbd
00000080: df7a ecbd 72da efbe 6027 b3be f4b7 b13e

tof_layer_1.bias f4 [4]
0.010312766 0.0018753165 0.0043786457 0.003050056
00000000: e0f6 283c 2ecd f53a be7a 8f3b 73e3 473b

bn_tof_1.weight f4 [4]
1.1913083 0.84513986 0.99990803 0.9852619
00000000: ca7c 983f 165b 583f f9f9 7f3f 203a 7c3f

bn_tof_1.bias f4 [4]
-0.20260613 -0.12378712 -0.31407943 0.15441874
00000000: fb77 4fbe 1a84 fdbd 05cf a0be f21f 1e3e

bn_tof_1.running_mean f4 [4]
-0.003927175 -0.30477265 0.1830057 0.047640424
00000000: 88af 80bb 290b 9cbe d965 3b3e 9b22 433d

bn_tof_1.running_var f4 [4]
0.066682495 1.1354038 0.44945353 0.1837241
00000000: d590 883d e954 913f c61e e63e 2c22 3c3e

combined_block_1.conv1.weight f4 [16, 8, 3, 3]
0.16307373 0.2683831 0.13191454 0.020280184 0.11425103 -0.08192212 0.09287571 -0.06518141
-0.22807185 0.2984232 0.43091607 0.15611197 0.117677286 0.49745432 0.35707095 0.23102538
0.19726965 -0.07554958 -0.24475 -0.38973638 -0.054703604 -0.14915994 -0.18803588 -0.044635713
0.14281803 0.18473008 0.09781241 0.22339255 0.32547966 0.24635203 -0.08294796 -0.061421845
0.086610086 -0.18545356 -0.061373577 0.11582342 -0.19314322 -0.010074393 -0.1326595 -0.16798444
-0.2973938 -0.22038405 0.0006729277 -0.1010915 0.11140684 -0.0007680062 0.04703771 0.10392405
0.04571177 -0.054015048 0.0034046865 -0.061905164 0.030871112 -0.04169982 0.12992953 0.020427387
-0.03634882 0.06616487 -0.19530599 -0.022753892 0.060389683 0.051626902 -0.19749437 -0.17945299
0.012938488 0.12752654 0.02372479 0.056784768 -0.060617886 -0.013595558 -0.22482888 0.04858695
0.07211444 0.15935233 0.01574119 -0.06964922 0.07381372 -0.025262944 0.052049726 0.0013889264
0.034049943 0.060665015 -0.012042673 0.07644127 0.10172376 0.17279743 0.082774445 0.05753732
0.007306063 -0.011139681 0.12293892 0.08391141 0.023861522 0.06722052 -0.056322664 0.014473938
0.038952366 0.0032812255 -0.05667144 -0.09638075 -0.07908924 -0.022509089 0.013595032 -0.025483293
-0.121843755 0.0391772 0.020501025 0.033887252 0.4859094 0.4525772 0.29549316 -0.075400494
-0.08962903 -0.13438171 0.119434774 -0.3153177 -0.04015265 0.03491493 -0.11874587 -0.13487713
-0.123438105 0.11391629 0.034442287 0.101788335 0.10731297 0.11030937 0.13696894 0.24676248
0.25721252 0.08145615 -0.17491168 0.011096039 -0.04447072 -0.08569211 0.08716427 -0.5130282
-0.3000726 -0.11790075 0.09191002 0.24986498 0.15148416 0.12286736 0.061014954 -0.25531328
-0.337149 -0.19901088 -0.059734393 -0.31949988 -0.1490787 -0.10069553 0.030551886 0.05619677
0.035722345 -0.18236503 -0.2603894 0.15994422 0.07005439 0.23856343 0.19830646 -0.034995236
0.14531629 0.07728446 0.16017976 0.059786696 -0.038304266 -0.0036284346 -0.016821539 -0.15037659
0.05910321 0.14394438 -0.06579299 -0.19925836 -0.24912722 -0.23352194 0.02241998 -0.08690192
-0.071860485 0.120556444 0.27232304 0.11390805 0.004965676 -0.19008805 -0.32099715 -0.073472515
-0.06455157 -0.28005412 -0.17541124 0.034851484 -0.1681499 -0.06157544 -0.27642742 -0.044054344
0.09617935 -0.22734396 0.009910367 -0.17007916 -0.33202812 -0.05332114 -0.1803164 0.0767592
0.13936701 0.16766779 0.10360652 0.26852292 0.061283465 0.33075902 0.38520482 0.077076085
-0.14806761 -0.19653001 0.025317438 -0.22433084 -0.15780921 0.12152757 -0.11713211 -0.24527183
0.006797945 -0.028704327 -0.024139019 0.035423324 -0.059550203 0.08954282 0.20959342 0.041938283
0.05126509 -0.004161471 -0.15777601 -0.05499358 0.018288193 -0.0913018 -0.0011798174 0.14160635
-0.01639517 0.1725892 0.055428494 0.076043874 0.030157352 -0.18164606 -0.23294494 -0.32744545
-0.01621104 -0.11632972 -0.20130493 -0.14790516 0.0023246272 0.07386391 0.01400848 0.08065362
-0.06343983 0.039613727 -0.05308551 -0.15731394 -0.085395284 0.1410101 0.21526107 -0.5188405
00000000: cdfc 263e 8269 893e 9b14 073e a122 a63c
00000010: 72fc e93d c9c6 a7bd 9f35 be3d d57d 85bd
00000020: ab8b 69be edca 983e 08a1 dc3e d1db 1f3e
00000030: ca00 f13d 55b2 fe3e 01d2 b63e eb91 6c3e
00000040: 0e01 4a3e bdb9 9abd be9f 7abe 878b c7be
00000050: e310 60bd 62bd 18be 7a8c 40be f0d3 36bd
00000060: e43e 123e e229 3d3e df51 c83d 04c1 643e
00000070: 45a5 a63e b543 7c3e 9fe0 a9bd 7995 7bbd
00000080: a160 b13d 8ae7 3dbe dc62 7bbd d434 ed3d
00000090: 56c7 45be 110f 25bc e4d7 07be 1d04 2cbe
000000a0: 0044 98be 5bac 61be 6a67 303a 0f09 cfbd
000000b0: 4529 e43d 0654 49ba 9daa 403d 22d6 d43d
000000c0: 443c 3b3d e23e 5dbd 2921 5f3b 4590 7dbd
000000d0: 6ae5 fc3c 6ecd 2abd 3f0c 053e 5657 a73c
000000e0: 80e2 14bd 7381 873d 4bfe 47be 5f66 babc
000000f0: 2c5b 773d bb76 533d f73b 4abe 86c2 37be
00000100: f4fb 533c 5196 023e 7e5a c23c 2597 683d
00000110: 764a 78bd e7bf 5ebc 8b39 66be 1c03 473d
00000120: bcb0 933d 422d 233e abf3 803c 40a4 8ebd
00000130: a62b 973d 3cf4 cebc 1832 553d a30c b63a
00000140: f477 0b3d e17b 783d a24e 45bc 3e8d 9c3d
00000150: 8c54 d03d cff1 303e a685 a93d 41ac 6b3d
00000160: b367 ef3b 3583 36bc 67c7 fb3d bfd9 ab3d
00000170: 3d79 c33c e9aa 893d 98b2 66bd 1924 6d3c
00000180: 848c 1f3d d409 573b 5020 68bd 4563 c5bd
00000190: 8af9 a1bd fb64 b8bc b2bd 5e3c 57c2 d0bc
000001a0: 3889 f9bd 4678 203d c4f1 a73c 5ccd 0a3d
000001b0: 1ec9 f83e 33b8 e73e e14a 973e 936b 9abd
000001c0: 6d8f b7bd 5c9b 09be 389a f43d 5271 a1be
000001d0: 1b77 24bd f502 0f3d 0931 f3bd 3b1d 0abe
000001e0: 1ecd fcbd f24c e93d 5b13 0d3d 6776 d03d
000001f0: e7c6 db3d e1e9 e13d 9641 0c3e 4eaf 7c3e
00000200: 5cb1 833e 7bd2 a63d 0c1c 33be 29cc 353c
00000210: ee26 36bd 587f afbd 2e83 b23d d155 03bf
00000220: 1ea3 99be f375 f1bd 523b bc3d 9bdc 7f3e
00000230: aa1e 1b3e e2a1 fb3d d1ea 793d 6cb8 82be
00000240: cb9e acbe 82c9 4bbe 0dac 74bd 7d95 a3be
00000250: 16a8 18be 7539 cebd f347 fa3c 962e 663d
00000260: 9851 123d e6bd 3abe c251 85be 6bc8 233e
00000270: ad78 8f3d f949 743e d910 4b3e 2a57 0fbd
00000280: cbcd 143e 5147 9e3d 2a06 243e e5e2 743d
00000290: efe4 1cbd 08cb 6dbb 53cd 89bc 52fc 19be
000002a0: 3516 723d 2866 133e 7abe 86bd 620a 4cbe
000002b0: 351b 7fbe 6020 6fbe 1baa b73c a2f9 b1bd
000002c0: 972b 93bd 4ce6 f63d ed6d 8b3e a048 e93d
000002d0: 1cb7 a23b 71a6 42be bd59 a4be c278 96bd
000002e0: 9d33 84bd 4163 8fbe 019f 33be 6ec0 0e3d
000002f0: 7d2f 2cbe 8736 7cbd e587 8dbe 5472 34bd
00000300: aef9 c43d dbcc 68be 185f 223c 3b29 2ebe
00000310: 97ff a9be 4567 5abd dda4 38be ed33 9d3d
00000320: 3ab6 0e3e 1bb1 2b3e a82f d43d d67b 893e
00000330: 5f04 7b3d 3f59 a93e 9139 c53e 11da 9d3d
00000340: 099f 17be 2a3f 49be 8466 cf3c fcb6 65be
00000350: bd98 21be 72e3 f83d f6e2 efbd 8a28 7bbe
00000360: 4cc1 de3b 5625 ebbc 31bf c5bc 0c18 113d
00000370: eaea 73bd 3a62 b73d a89f 563e 7ac7 2b3d
00000380: 58fb 513d f35c 88bb 0990 21be f340 61bd
00000390: 1fd1 953c 70fc babd 1aa4 9aba 4101 113e
000003a0: 2a4f 86bc 39bb 303e fd08 633d e4bc 9b3d
000003b0: 8d0c f73c 6d01 3abe 1e89 6ebe eea6 a7be
000003c0: 04cd 84bc 473e eebd e122 4ebe 7374 17be
000003d0: c658 183b f645 973d d383 653c ba2d a53d
000003e0: beec 81bd 0142 223d 3170 59bd e816 21be
000003f0: b9e3 aebd f464 103e 666d 5c3e bbd2 04bf

combined_block_1.conv1.bias f4 [16]
0.00084512203 0.00024902372 0.00046597244 -0.00255463 0.001817051 -0.002236361 0.00052286056 0.0008296285
-0.0002923635 -0.00094205874 -0.0017543584 -0.002981873 0.0010372148 -0.0014206625 -0.00058794 -0.00015587313
00000000: 2e8b 5d3a 668f 8239 c34d f439 946b 27bb
00000010: 1d2a ee3a e98f 12bb 9410 093a 6d7b 593a
00000020: 5d48 99b9 7ef4 76ba 80f2 e5ba 876b 43bb
00000030: 27f3 873a 8635 baba fc1f 1aba e071 23b9

combined_block_1.conv2.weight f4 [16, 16, 3, 3]
-0.05311072 0.047654577 0.0017512343 -0.055561632 0.097145736 0.13064943 -0.003203995 0.13811451
0.1675612 0.25060377 -0.049567025 0.059953164 0.04523111 -0.10791915 -0.1183263 0.2813478
-0.054578062 -0.04203975 0.15099166 0.09359683 0.16325814 -0.056761038 -0.015311909 -0.0015153401
-0.15201461 -0.10532141 -0.043374136 -0.079686664 -0.03833047 -0.2687534 -0.31003025 -0.32972908
-0.31223816 0.13769864 0.054864723 0.18036579 -0.008477917 -0.07551028 -0.017539345 0.26548162
0.029111577 0.087759994 0.14025865 -0.052619755 -0.06696726 0.13761356 0.08898901 -0.033183698
0.1540054 0.12876117 0.014976398 0.26836523 0.22322066 0.07512632 0.19903843 0.39620563
0.37744775 0.0606961 0.104675986 0.03401828 -0.05198819 0.16376147 -0.03748409 -0.018767253
0.0555543 0.19548787 -0.2829229 -0.016295116 0.037526418 0.16105776 0.09613756 0.070045285
0.40324134 -0.10018285 -0.20211127 0.053338487 -0.23332547 -0.25881496 0.05231338 -0.25625202
-0.34043023 -0.08425855 -0.24389769 -0.27097476 -0.21947832 -0.12854563 -0.09860459 -0.10123355
-0.025729675 -0.18028428 0.08316972 -0.24808744 0.07506651 0.2155875 -0.15925805 0.18405886
-0.038067345 -0.32764322 -0.14131233 -0.12183543 -0.35198578 -0.2728353 -0.116943054 -0.17771505
-0.1638882 0.21775943 0.057313383 -0.09968782 0.16373293 -0.11278187 0.2561887 -0.19213495
-0.35544437 0.07966173 -0.14271629 -0.110011995 0.04648361 0.04791849 0.008839798 0.08145198
-0.10150777 -0.052188486 -0.18074507 -0.04498682 -0.20568979 -0.07057441 0.17167109 0.00915688
-0.017073441 -0.070525356 -0.012345696 0.017918723 -0.03214533 -0.105881274 -0.0746383 -0.4062829
0.09104783 -0.13264959 0.05232127 0.01786012 0.08232455 -0.0035454165 0.018447293 -0.01580699
-0.19412336 0.11459045 0.061356265 -0.31048527 -0.253541 -0.18464486 -0.057919133 0.06880298
0.12967171 0.12508844 0.3105168 -0.024766792 0.020024419 0.07694028 -0.038318083 -0.029393159
-0.053885292 -0.26262397 0.28523442 -0.0015746304 -0.021644205 0.13779159 -0.12214212 -0.13315497
-0.02878297 -0.13644339 -0.03954039 0.07604673 0.041754298 0.11554951 0.019883841 0.027344327
-0.049755234 0.34046912 0.16677114 0.28341863 -0.2739651 -0.47528204 -0.40448123 -0.19763254
0.007529339 -0.028563239 0.17377461 0.03886988 0.066039406 -0.13911515 -0.14990021 -0.10200638
-0.028522968 -0.26367038 0.04425259 -0.079634376 -0.11951351 0.08331296 0.19904745 0.23935029
-0.087797545 -0.15122533 -0.0022895916 -0.27656254 -0.09338754 0.04096119 -0.12713207 -0.10432709
-0.23323122 0.048515785 0.14731312 -0.102830626 -0.13315642 0.102359295 -0.23845775 -0.3118132
0.15739481 0.06934344 -0.086264774 0.094100796 -0.056805003 -0.018304633 0.15227015 -0.26054552
-0.14162734 -0.22545084 0.24678518 -0.038810957 -0.3132666 -0.1072254 -0.06025081 -0.21345931
0.11512493 0.11740576 0.17067465 -0.022929385 -0.21180685 0.15955228 -0.13120373 -0.010229881
0.0054221554 0.11909004 -0.08471145 -0.059858307 -0.24830425 -0.10164133 0.045211315 0.03512751
0.09893674 0.1323317 0.20027356 0.24902111 0.3645365 -0.22495757 0.01973064 0.025687382
00000000: a08a 59bd 7231 433d ac89 e53a 9894 63bd
00000010: 58f4 c63d f7c8 053e 1efa 51bb e46d 0d3e
00000020: 2a95 2b3e 234f 803e cb06 4bbd 7391 753d
00000030: 4244 393d b704 ddbd 0f55 f2bd d20c 903e
00000040: 3f8d 5fbd df31 2cbd 8f9d 1a3e b2af bf3d
00000050: 242d 273e 437e 68bd cdde 7abc 609e c6ba
00000060: b8a9 1bbe c0b2 d7bd 14a9 31bd c332 a3bd
00000070: 6900 1dbd 0c9a 89be 49bc 9ebe 40d2 a8be
00000080: aedd 9fbe df00 0d3e d5b9 603d cfb1 383e
00000090: f6e6 0abc 22a5 9abd acae 8fbc 35ed 873e
000000a0: 677b ee3c 83bb b33d f79f 0f3e d087 57bd
000000b0: 2126 89bd 92ea 0c3e df3f b63d a1eb 07bd
000000c0: 97b3 1d3e f8d9 033e 915f 753c 2b67 893e
000000d0: f593 643e d4db 993d bbd0 4b3e 77db ca3e
000000e0: d540 c13e 799c 783d 5d60 d63d c156 0b3d
000000f0: 91f1 54bd 16b1 273e eb88 19bd c8bd 99bc
00000100: e88c 633d f92d 483e 45db 90be 567d 85bc
00000110: 4db5 193d 53ec 243e c5e3 c43d e773 8f3d
00000120: a675 ce3e ab2c cdbd 42f6 4ebe 7579 5a3d
00000130: dfec 6ebe 6583 84be 8e46 563d 7733 83be
00000140: df4c aebe bf8f acbd 51c0 79be 34bd 8abe
00000150: edbe 60be 77a1 03be 34f1 c9bd 8953 cfbd
00000160: 0ac7 d2bc 719c 38be e354 aa3d a20a 7ebe
00000170: 78bc 993d f8c2 5c3e 8b14 23be ed79 3c3e
00000180: 81ec 1bbd dac0 a7be 2eb4 10be db84 f9bd
00000190: 7b37 b4be 12b1 8bbe d77f efbd effa 35be
000001a0: 4fd2 27be 54fc 5e3e 70c1 6a3d 2129 ccbd
000001b0: 9ba9 273e 2efa e6bd 2a2b 833e 06bf 44be
000001c0: cefc b5be b025 a33d 3824 12be f84d e1bd
000001d0: 9965 3e3d 2e46 443d cdd4 103c 4cd0 a63d
000001e0: 4ee3 cfbd 98c3 55bd 3c15 39be 1a44 38bd
000001f0: 58a0 52be 5189 90bd 8cca 2f3e bd06 163c
00000200: 9add 8bbc 996f 90bd 9a45 4abc 49ca 923c
00000210: d2aa 03bd 48d8 d8bd f7db 98bd 5004 d0be
00000220: 4977 ba3d 4bd5 07be d44e 563d 634f 923c
00000230: c699 a83d 385a 68bb c71e 973c a97d 81bc
00000240: 46c8 46be 66ae ea3d b550 7b3d edf7 9ebe
00000250: 20d0 81be 8b13 3dbe 9d3c 6dbd 94e8 8c3d
00000260: a9c8 043e 2f17 003e 0ffc 9e3e bae3 cabc
00000270: 400a a43c de92 9d3d 6cf3 1cbd ecc9 f0bc
00000280: d3b6 5cbd a676 86be 3f0a 923e d463 ceba
00000290: 304f b1bc 3d19 0d3e a625 fabd c759 08be
000002a0: 43ca ebbc d1b7 0bbe 1bf5 21bd 63be 9b3d
000002b0: 8e06 2b3d 39a5 ec3d 70e3 a23c 3601 e03c
000002c0: 25cc 4bbd f851 ae3e 0ec6 2a3e 3f1c 913e
000002d0: 2745 8cbe 2b58 f3be 2a18 cfbe 2f60 4abe
000002e0: acb8 f63b 74fd e9bc f9f1 313e 0636 1f3d
000002f0: ab3f 873d 3474 0ebe 717f 19be b9e8 d0bd
00000300: 00a9 e9bc ceff 86be 3442 353d 5917 a3bd
00000310: 80c3 f4bd fc9f aa3d 18d3 4b3e 3e18 753e
00000320: 33cf b3bd d0da 1abe f90c 16bb 9b99 8dbe
00000330: f741 bfbd ecc6 273d e92e 02be 71a9 d5bd
00000340: 2ad4 6ebe 7db8 463d 40d9 163e dd98 d2bd
00000350: 285a 08be c0a1 d13d 452e 74be fba5 9fbe
00000360: 1b2c 213e ef03 8e3d 96ab b0bd ebb7 c03d
00000370: 5dac 68bd 99f3 95bc b5ec 1b3e 3966 85be
00000380: c206 11be 96dc 66be 41b5 7c3e 3df8 1ebd
00000390: 7b64 a0be fe98 dbbd 8ec9 76bd 1495 5abe
000003a0: 9fc6 eb3d 6e72 f03d 56c5 2e3e 68d6 bbbc
000003b0: e5e3 58be ac61 233e 455a 06be 3b9b 27bc
000003c0: 56ac b13b 7be5 f33d 327d adbd fc2d 75bd
000003d0: 7843 7ebe 5429 d0bd 802f 393d dde1 0f3d
000003e0: 589f ca3d f681 073e 8314 4d3e 64ff 7e3e
000003f0: 87a4 ba3e 475b 66be 27a2 a13c 586e d23c

combined_block_1.conv2.bias f4 [16]
-0.00031380454 -0.00053367123 0.0008917296 -0.00030773 0.0011219239 -0.00065888156 0.00062152237 0.00070759817
0.00010322918 -3.8464706e-05 0.00024754766 -0.00023240919 -0.0008649373 -0.0014392526 -0.00010114853 -0.0009374306
00000000: 2286 a4b9 12e6 0bba f6c2 693a d256 a1b9
00000010: 850d 933a cbb8 2cba a9ed 223a 1c7e 393a
00000020: be7c d838 2a55 21b8 49c9 8139 deb2 73b9
00000030: f6bc 62ba 4ea5 bcba b41f d4b8 e7bd 75ba

combined_block_1.bn1.weight f4 [16]
0.85709286 1.0621825 0.81808704 1.1501001 1.0218878 0.9553272 0.8960922 1.373706
1.0795478 0.78393334 1.089039 1.0710158 1.0334479 0.98297465 0.989624 1.0149008
00000000: 706a 5b3f 99f5 873f 276e 513f 7b36 933f
00000010: 38cd 823f 5390 743f 4c66 653f 99d5 af3f
00000020: 9f2e 8a3f dbaf 483f a165 8b3f 0c17 893f
00000030: 0548 843f 3aa4 7b3f 0058 7d3f 45e8 813f

combined_block_1.bn1.bias f4 [16]
-0.011873556 -0.24984838 0.015469477 0.017862312 -0.16295005 0.08480204 0.18321194 0.030736769
0.10472121 0.27883303 -0.22938153 -0.178586 0.024717791 -0.18483965 -0.11802723 -0.18963543
00000000: 4e89 42bc 41d8 7fbe b073 7d3c fc53 923c
00000010: 61dc 26be b1ac ad3d e99b 3b3e adcb fb3c
00000020: 1378 d63d 34c3 8e3e fee2 6abe 40df 36be
00000030: f77c ca3c 9b46 3dbe 43b8 f1bd ca2f 42be

combined_block_1.bn1.running_mean f4 [16]
-0.063997574 0.34817135 -0.4022088 -1.3570775 -0.39633453 -0.11654549 -1.096782 -0.6935671
0.64037704 0.07220797 -0.36027548 -1.2209535 -0.6482865 -0.27166292 0.5622957 0.30710688
00000000: 2911 83bd 8443 b23e 50ee cdbe b7b4 adbf
00000010: 5cec cabe 67af eebd 5a63 8cbf 9d8d 31bf
00000020: c0ef 233f c6e1 933d 0776 b8be 3448 9cbf
00000030: 1bf6 25bf 6717 8bbe 9cf2 0f3f 1d3d 9d3e

combined_block_1.bn1.running_var f4 [16]
0.58146185 0.6528678 1.1953336 2.5851097 1.0081048 0.7880808 1.1170475 1.8882473
1.5647796 0.8671267 0.9584679 2.9758823 0.85741484 0.6803879 0.9476228 0.6746951
00000000: afda 143f 5822 273f b100 993f 7072 2540
00000010: 9409 813f aabf 493f 6afb 8e3f 16b2 f13f
00000020: b34a c83f 04fc 5d3f 275e 753f db74 3e40
00000030: 8a7f 5b3f e72d 2e3f 6897 723f d1b8 2c3f

combined_block_1.bn2.weight f4 [16]
0.89856565 0.99243695 0.99417657 1.0110998 0.95451576 0.98900783 0.81159335 0.8260486
1.043679 0.9383937 0.7245435 0.8534943 1.0508472 0.9880202 1.1043718 1.2227428
00000000: 6608 663f 5910 7e3f 5b82 7e3f b86b 813f
00000010: 255b 743f 9e2f 7d3f 95c4 4f3f ec77 533f
00000020: 4697 853f 923a 703f af7b 393f 9a7e 5a3f
00000030: 2982 863f e4ee 7c3f 0e5c 8d3f d682 9c3f

combined_block_1.bn2.bias f4 [16]
0.00012635456 -0.22349286 -0.13278082 0.0024150445 -0.47136343 -0.076168075 -0.3640219 -0.4177681
-0.04692265 0.06934993 -0.19350561 0.036014777 -0.2959552 -0.35159183 -0.22694081 -0.31571266
00000000: 0b7e 0439 50db 64be b2f7 07be b945 1e3b
00000010: 8c56 f1be 02fe 9bbd 1461 babe b3e5 d5be
00000020: f731 40bd 5607 8e3d 5626 46be 3b84 133d
00000030: 7187 97be d803 b4be 2c63 68be 17a5 a1be

combined_block_1.bn2.running_mean f4 [16]
-0.77843463 -1.1840217 -1.3477798 -2.2632563 0.028932987 -1.1988251 1.1872957 -0.64764667
0.4023367 0.17986217 1.6265172 -0.6499461 0.8886015 -0.3172484 -0.28744638 -1.1189082
00000000: 7e47 47bf 068e 97bf 0c84 acbf 31d9 10c0
00000010: df04 ed3c 1a73 99bf 4ef9 973f 2ccc 25bf
00000020: 13ff cd3e ca2d 383e b731 d03f de62 26bf
00000030: 637b 633f 626e a2be 2c2c 93be 6238 8fbf

combined_block_1.bn2.running_var f4 [16]
1.6706679 1.7964646 1.7778084 2.3812752 1.1915113 2.1253748 2.203854 1.4577116
2.3442328 1.753423 2.3223321 2.8549693 2.0420592 1.4690363 1.6866286 2.0440655
00000000: 72d8 d53f 8df2 e53f 3a8f e33f d066 1840
00000010: 7183 983f 2406 0840 f20b 0d40 4b96 ba3f
00000020: e907 1640 2a70 e03f 17a1 1440 d1b7 3640
00000030: 19b1 0240 6209 bc3f 72e3 d73f f8d1 0240

combined_block_2.conv1.weight f4 [32, 16, 3, 3]
-0.17884551 -0.13220918 -0.12499435 -0.28458297 -0.07455717 0.0052197347 0.010102095 -0.24030188
0.010861904 -0.16120613 -0.337438 -0.36582702 0.057733595 0.0010550501 -0.34435844 0.056109298
-0.025588317 -0.09528989 -0.29325247 -0.44212455 -0.14260472 0.051866338 0.14444871 -0.0035723469
0.03741208 0.0023364208 -0.108846255 -0.04120445 -0.21299422 -0.085595675 -0.010459828 0.21680701
-0.05971497 0.03398568 0.15831833 0.23991726 -0.1765872 0.134336 0.15619095 -0.1622929
-0.0005469053 0.03836198 -0.3587163 -0.10592049 0.114306316 0.0018292619 -0.2342771 -0.14833517
-0.107436754 -0.0018272666 -0.036309946 -0.22169667 0.07140957 0.14032707 -0.022813328 -0.09049736
-0.01195905 0.18356943 0.07746741 0.13120922 0.07978176 0.022910837 0.020180682 -0.16152273
0.06865051 0.15273687 -0.060643476 0.27926242 0.15542184 -0.09434853 -0.20080669 0.19193383
0.11537749 -0.18471095 -0.20188141 -0.148313 -0.027620131 0.024503073 -0.15650307 -0.16068563
-0.045620706 -0.21551198 -0.33902162 -0.12290875 -0.2716418 -0.10079735 -0.19918683 -0.19833674
-0.025730941 -0.12688898 0.21259734 0.2310795 0.12786768 -0.008561404 -0.054112248 0.13010894
-0.034352858 0.04533357 0.012130877 0.0022001364 -0.11358411 0.09493558 0.17754762 -0.0590158
0.14172612 -0.0332132 -0.026056042 0.09771367 -0.09609415 -0.056945346 0.027772494 0.06972266
-0.10455948 -0.07170359 0.31903365 0.020306977 0.0032867307 -0.15729575 -0.10981708 0.0096218875
-0.055917468 -0.2695847 -0.03213956 0.004936307 -0.33689624 0.10663042 -0.21712147 -0.0025503072
-0.10119262 -0.2082892 -0.12257654 -0.051628347 -0.48377568 -0.26170978 0.017766053 -0.43003884
-0.35116747 -0.496837 -0.07781919 -0.28031325 -0.33089736 0.041889094 -0.010512389 -0.16601226
-0.14513257 0.11092641 0.06360382 -0.21108672 0.08023837 0.05952694 -0.16755825 0.15530089
0.2863382 0.0054252795 0.09048513 -0.09043548 0.34520137 -0.10071223 -0.10648682 0.06942181
-0.09380646 -0.33420464 -0.2186116 -0.075554706 0.17144193 -0.38914147 -0.043335915 -0.05298044
-0.20010614 0.05627782 -0.25222665 -0.056186967 0.01360468 -0.01704126 0.0872933 0.033079136
0.09349119 -0.057774175 -0.10341766 -0.21142642 -0.2379521 -0.15917751 -0.12033085 -0.07204327
-0.08891548 -0.024620576 -0.25047302 -0.18556647 0.06519507 0.32459253 0.1828027 -0.04027768
-0.16370445 -0.024546959 -0.09526914 0.11118709 -0.1057338 0.03289251 0.18875964 -0.07807132
-0.1000029 -0.29385182 -0.12939714 -0.13001396 -0.07220967 -0.02778646 -0.30099434 0.105253145
0.04541229 0.088372834 0.059528295 0.021963868 -0.03110797 -0.00026234673 0.123345934 0.1329047
0.119838096 -0.15360126 0.020693034 -0.16716431 -0.14047542 -0.046051696 -0.0147849405 0.09974766
0.1836244 0.11131019 0.010805827 -0.3825256 0.13541335 -0.22881854 -0.3257134 0.027476232
-0.095930934 -0.024519531 -0.13473989 -0.2539984 -0.36613742 -0.16553707 -0.26779824 -0.2035894
0.0041911174 -0.2080262 0.09275351 0.13150588 -0.02504171 0.12656964 0.33828402 0.18324424
-0.10222742 0.01647775 0.053143863 0.030194107 0.027352033 0.081048094 0.17034794 -0.020821627
00000000: 4723 37be d861 07be 0afd ffbd dcb4 91be
00000010: 6eb1 98bd 4f0a ab3b 4283 253c b211 76be
00000020: 21f6 313c 3813 25be acc4 acbe ae4d bbbe
00000030: 107a 6c3d 9b49 8a3a c04f b0be ddd2 653d
00000040: 979e d1bc 5927 c3bd 3025 96be 265e e2be
00000050: f906 12be cc71 543d 5dea 133e 091e 6abb
00000060: 693d 193d a31e 193b c9ea debd ffc5 28bd
00000070: 281b 5abe c94c afbd b35f 2bbc a802 5e3e
00000080: af97 74bd 9234 0b3d 331e 223e dfac 753e
00000090: 46d3 34be 608f 093e 85f0 1f3e 1c30 26be
000000a0: 325e 0fba 7421 1d3d aaa9 b7be d8ec d8bd
000000b0: 6e19 ea3d d8c3 ef3a 56e6 6fbe 2de5 17be
000000c0: cd07 dcbd e580 efba bdb9 14bd 7404 63be
000000d0: 2e3f 923d e6b1 0f3e 04e3 babc ae56 b9bd
000000e0: e4ef 43bc a0f9 3b3e 3ca7 9e3d b65b 063e
000000f0: 9f64 a33d 82af bb3c f551 a53c 3766 25be
00000100: a398 8c3d 0e67 1c3e 4b65 78bd 7cfb 8e3e
00000110: e726 1f3e cd39 c1bd 45a0 4dbe 4d8a 443e
00000120: 094b ec3d de24 3dbe 00ba 4ebe 5ddf 17be
00000130: 9d43 e2bc abba c83c 5742 20be c68a 24be
00000140: c7dc 3abd 2caf 5cbe 3e94 adbe 95b7 fbbd
00000150: a214 8bbe d76e cebd a2f7 4bbe c918 4bbe
00000160: b2c9 d2bc 2fef 01be 1eb3 593e 1ba0 6c3e
00000170: bfef 023e 2245 0cbc cea4 5dbd 473b 053e
00000180: 95b5 0cbd b2af 393d 96c0 463c 2a30 103b
00000190: c99e e8bd 966d c23d 0bcf 353e 8dba 71bd
000001a0: a720 113e 900a 08bd 7b73 d5bc 1b1e c83d
000001b0: 02cd c4bd 863f 69bd 2483 e33c c1ca 8e3d
000001c0: 4823 d6bd 55d9 92bd 6158 a33e d15a a63c
000001d0: 3166 573b 2312 21be c7e7 e0bd 1fa5 1d3c
000001e0: b709 65bd 0107 8abe c5a4 03bd bfc0 a13b
000001f0: aa7d acbe 0d61 da3d 1755 5ebe 0e23 27bb
00000200: 143e cfbd c449 55be 6909 fbbd 3f78 53bd
00000210: 72b1 f7be d3fe 85be 1d8a 913c 0d2e dcbe
00000220: 39cc b3be 6b61 febe ab5f 9fbd 3885 8fbe
00000230: 616b a9be e693 2b3d 283c 2cbc 1eff 29be
00000240: a29d 14be 632d e33d b842 823d 1e27 58be
00000250: 0454 a43d 85d2 733d 6494 2bbe 3207 1f3e
00000260: ec9a 923e 8bc6 b13b 4550 b93d 3d36 b9bd
00000270: 3cbe b03e 3742 cebd c315 dabd 062d 8e3d
00000280: 9a1d c0bd df1c abbe b8db 5fbe 6dbc 9abd
00000290: 798e 2f3e 8d3d c7be 0081 31bd 0502 59bd
000002a0: a0e8 4cbe 9283 663d da23 81be 4e24 66bd
000002b0: 2ae6 5e3c 1d9a 8bbc d4c6 b23d fd7d 073d
000002c0: 4f78 bf3d 9da4 6cbd a3cc d3bd 2b80 58be
000002d0: b7a9 73be 6eff 22be 0570 f6bd 6c8b 93bd
000002e0: 5219 b6bd 17b1 c9bc 003e 80be 2305 3ebe
000002f0: fe84 853d fe30 a63e a230 3b3e 35fa 24bd
00000300: 24a2 27be b416 c9bc 781c c3bd 0fb6 e33d
00000310: f68a d8bd 4cba 063d 354a 413e dbe3 9fbd
00000320: 52ce ccbd bf73 96be af80 04be 6122 05be
00000330: aae2 93bd 6ea0 e3bc ee1b 9abe f68e d73d
00000340: 3d02 3a3d d1fc b43d f1d3 733d 92ed b33c
00000350: 24d6 febc 958b 89b9 cb9c fc3d 2b18 083e
00000360: ad6d f53d a649 1dbe 7084 a93c 1f2d 2bbe
00000370: cad8 0fbe b4a0 3cbd 893c 72bc 8048 cc3d
00000380: 0908 3c3e 99f6 e33d ec0a 313c 65da c3be
00000390: cca9 0a3e 684f 6abe e8c3 a6be d615 e13c
000003a0: 7077 c4bd 2fdd c8bc 41f9 09be 140c 82be
000003b0: 5d76 bbbe 8d82 29be da1c 89be bd79 50be
000003c0: a455 893b d204 55be 8df5 bd3d 7aa9 063e
000003d0: 4624 cdbc 799b 013e 9033 ad3e 61a4 3b3e
000003e0: 9c5c d1bd 59fc 863c 61ad 593d a259 f73c
000003f0: 5f11 e03c 8bfc a53d b16f 2e3e 1e92 aabc

combined_block_2.conv1.bias f4 [32]
-7.33529e-05 -0.00046852895 0.00019887177 -0.00010947448 -0.00043667678 -0.00014716262 -0.00010719383 0.0006919139
0.00020808686 -0.00079594704 6.845642e-05 7.223626e-05 0.00031082932 -0.00046116093 -0.0002459521 0.00031844564
-0.00019550382 0.00036161643 -0.00032099846 -0.00031566876 0.00031055152 -0.0005880282 -0.000359229 0.0005645259
-0.0004387814 -0.0008769549 -0.0004916285 8.733912e-05 -7.780298e-06 -0.0007516468 0.00033644377 0.00011874833
00000000: 0ad5 99b8 e4a4 f5b9 3c88 5039 aa95 e5b8
00000010: c4f1 e4b9 aa4f 1ab9 40cd e0b8 8e61 353a
00000020: e431 5a39 1aa7 50ba 4390 8f38 8c7d 9738
00000030: cef6 a239 f9c7 f1b9 22f3 80b9 0df5 a639
00000040: 2800 4db9 5697 bd39 af4b a8b9 5880 a5b9
00000050: 85d1 a239 e825 1aba e656 bcb9 b1fc 133a
00000060: 3e0c e6b9 72e3 65ba a1e0 00ba d529 b738
00000070: 2088 02b7 2a0a 45ba b864 b039 8608 f938

combined_block_2.conv2.weight f4 [32, 32, 3, 3]
0.2669719 0.14914078 0.30387706 0.04683706 -0.081625305 0.02218558 -0.30967334 -0.12508559
-0.26723394 -0.19631352 -0.37344348 0.051902734 -0.0029234502 -0.00053488766 0.08754187 0.4020473
-0.0296501 -0.20637138 0.12847172 0.09817171 0.08945846 0.0846521 0.08925974 0.17825653
0.1203928 0.21001306 0.062061794 -0.20875743 -0.17520538 -0.0171589 0.047223292 0.037701502
0.19194834 0.16378216 -0.017871024 0.13128336 0.13926882 -0.015439326 -0.053119205 -0.10946923
-0.046744194 -0.13701421 -0.06504149 0.018243456 0.10467204 -0.117940634 -0.32193124 0.08037546
0.17636803 0.030060446 0.15588488 -0.047072865 -0.1425768 -0.18870561 0.32316557 0.2363592
0.18563549 0.047383003 0.106685735 -0.030411748 0.0844291 -0.050002832 0.2931488 0.04373309
0.033741724 -0.13208662 -0.1452246 -0.0690915 0.007505775 0.0057241395 0.13372855 0.2046231
-0.06421074 0.055821095 -0.17729317 -0.14235592 -0.16386478 0.0035213223 0.1539253 -0.26297662
-0.16352017 -0.005947185 -0.31857058 0.1855807 0.0076645324 -0.12228697 -0.014876538 0.22421722
-0.09478721 0.07300842 -0.24487543 -0.10118815 -0.07471973 -0.08279187 -0.021143373 0.10299374
0.11263705 0.040069275 -0.08838085 -0.023085441 0.022722078 -0.0919644 -0.005004278 0.00065127213
0.052601837 -0.0832688 -0.056308415 -0.0647051 -0.21157572 -0.17892577 -0.12633443 -0.22901231
0.027858557 -0.120309465 -0.033146065 0.1448568 0.006654283 0.1276368 0.10215857 0.13814935
0.21960899 -0.15414713 -0.041799698 -0.1673541 -0.2779546 -0.10384489 0.078678444 0.0645834
-0.18090546 0.036927782 -0.24961306 -0.09192904 -0.35408396 0.079847716 0.10106899 0.21948089
0.31138363 -0.10363444 -0.14896111 -0.0673953 0.05831516 -0.007155392 0.0380828 0.10169632
0.11251452 0.1976024 0.22843784 -0.09020082 0.06982288 0.01697789 0.20885898 -0.122943096
0.07366549 -0.25099644 -0.15848345 -0.10140468 -0.12214105 0.08035323 -0.13025557 -0.33061132
-0.22301085 -0.10409253 0.038848046 -0.0930203 -0.027615521 -0.14531367 -0.088465735 -0.0026244659
0.27201384 0.26268238 0.2439509 -0.011340386 0.22400747 -0.03142524 0.187912 0.1264864
0.2029513 -0.30473128 -0.30942968 -0.131216 -0.028062299 -0.14949025 -0.20332119 -0.017254556
-0.00987378 0.042939022 0.088865265 0.025022475 -0.07044182 0.23635928 0.078187555 0.21670552
0.05365811 0.10379953 0.024926553 -0.07875773 0.024920361 0.15521452 0.12109107 0.07059131
0.08882124 -0.04923098 -0.07026039 -0.21302843 0.08358699 0.015412291 0.047699124 -0.19744103
-0.047474064 -0.062247735 -0.11013066 -0.15414646 -0.08205019 0.30704933 -0.051585793 -0.29551262
-0.276596 -0.3330483 -0.00976024 -0.12553328 0.072640575 -0.17360467 -0.38631466 -0.023194144
0.05049745 -0.24153636 -0.10820179 -0.13189338 -0.17339207 -0.026556829 -0.17654483 -0.28917822
-0.3151139 -0.45749396 -0.107535906 -0.06931049 -0.014696615 0.055683527 0.12715364 0.08101639
0.122380786 -0.12826747 0.1727591 0.13168103 0.22345845 -0.021710135 -0.07102859 0.16582799
0.24836987 0.36919257 -0.094923325 0.3921972 -0.10519024 0.1265586 -0.10428585 0.087173976
00000000: 8ab0 883e 5cb8 183e c695 9b3e 38d8 3f3d
00000010: 2b2b a7bd 89be b53c 818d 9ebe 7016 00be
00000020: e3d2 88be 6906 49be fc33 bfbe f697 543d
00000030: 5b97 3fbb b437 0cba 2749 b33d 25d9 cd3e
00000040: c4e4 f2bc 0553 53be 178e 033e 400e c93d
00000050: ff35 b73d 155e ad3d d0cd b63d e188 363e
00000060: 8090 f63d aa0d 573e 8234 7e3d 82c4 55be
00000070: 0a69 33be d290 8cbc 366d 413d e46c 1a3d
00000080: 1b8e 443e 83b6 273e 4166 92bc 256f 063e
00000090: 7c9c 0e3e 3af5 7cbc 8693 59bd 6731 e0bd
000000a0: d776 3fbd 744d 0cbe 7934 85bd 4d73 953c
000000b0: 4b5e d63d dc8a f1bd 2cd4 a4be e49b a43d
000000c0: d299 343e 5341 f63c 49a0 1f3e 7acf 40bd
000000d0: a7ff 11be 0b3c 41be f575 a53e 2508 723e
000000e0: 3b17 3e3e ae14 423d 0d7e da3d 0f22 f9bc
000000f0: 2ae9 ac3d c5cf 4cbd 9917 963e 7821 333d
00000100: c334 0a3d b741 07be c2b5 14be d87f 8dbd
00000110: 01f3 f53b 9091 bb3b 23f0 083e b888 513e
00000120: ec80 83bd a9a4 643d 578c 35be c0c5 11be
00000130: 2bcc 27be fcc5 663b 989e 1d3e dfa4 86be
00000140: d571 27be 9be0 c2bb af1b a3be de08 3e3e
00000150: c226 fb3b 9771 fabd b9bc 73bc 3399 653e
00000160: cc1f c2bd 7085 953d a0c0 7abe bc3b cfbd
00000170: a806 99bd c98e a9bd de34 adbc 62ee d23d
00000180: 41ae e63d ae1f 243d 0501 b5bd ae1d bdbc
00000190: a723 ba3c d557 bcbd edfa a3bb 22ba 2a3a
000001a0: 0675 573d d588 aabd a7a3 66bd 1c84 84bd
000001b0: 4ea7 58be 5138 37be d05d 01be 3482 6abe
000001c0: a137 e43c cf64 f6bd 2bc4 07bd 5755 143e
000001d0: 2c0c da3b 39b3 023e 8338 d13d 0677 0d3e
000001e0: 2ee1 603e bfd8 1dbe 2936 2bbd e05e 2bbe
000001f0: 1150 8ebe a1ac d4bd 2a22 a13d 4d44 843d
00000200: 483f 39be 9641 173d 919a 7fbe 4b45 bcbd
00000210: 7e4a b5be 3387 a33d 42fd ce3d 99bf 603e
00000220: ad6d 9f3e 4b3e d4bd 4389 18be 8c06 8abd
00000230: e1db 6e3d c777 eabb b6fc 1b3d 2946 d03d
00000240: 036e e63d 4958 4a3e 9ceb 693e 35bb b8bd
00000250: 4cff 8e3d 3715 8b3c 21df 553e 97c9 fbbd
00000260: efdd 963d 9b82 80be 7c49 22be 42ad cfbd
00000270: 1625 fabd 3c90 a43d b761 05be e345 a9be
00000280: f55c 64be 772e d5bd 211f 1f3d 6d81 bebd
00000290: f239 e2bc 1bcd 14be 862d b5bd 3bff 2bbb
000002a0: 6645 8b3e 4e7e 863e 44ce 793e 07cd 39bc
000002b0: 3762 653e c1b7 00bd 016c 403e a785 013e
000002c0: 77d2 4f3e bd05 9cbe 916d 9ebe 7d5d 06be
000002d0: e8e2 e5bc f913 19be 6e33 50be 6d59 8dbc
000002e0: a3c5 21bc d4e0 2f3d fefe b53d effb cc3c
000002f0: cd43 90bd 2b08 723e cc20 a03d 0de8 5d3e
00000300: 9bc8 5b3d d994 d43d c532 cc3c bc4b a1bd
00000310: c925 cc3c 8ef0 1e3e 98fe f73d 2d92 903d
00000320: e9e7 b53d 6da6 49bd aee4 8fbd 2024 5abe
00000330: a82f ab3d d583 7c3c 2860 433d fb2d 4abe
00000340: 2a74 42bd 7bf7 7ebd 2f8c e1bd 92d8 1dbe
00000350: ee09 a8bd 9235 9d3e a04b 53bd 6e4d 97be
00000360: fe9d 8dbe 4f85 aabe 6ae9 1fbc cc8b 00be
00000370: 95c4 943d 6cc5 31be 09cb c5be a501 bebc
00000380: 6ad6 4e3d 4f55 77be e698 ddbd 0f0f 07be
00000390: b18d 31be b58d d9bc 2bc8 34be 2b0f 94be
000003a0: 9c56 a1be a63c eabe c93b dcbd a8f2 8dbd
000003b0: 12ca 70bc 6914 643d 9034 023e eceb a53d
000003c0: c7a2 fa3d 8c58 03be c3e7 303e 64d7 063e
000003d0: 4bd2 643e 74d9 b1bc 7077 91bd d0ce 293e
000003e0: ac54 7e3e cf06 bd3e 2967 c2bd 12ce c83e
000003f0: fb6d d7bd 9498 013e d293 d5bd 4588 b23d

combined_block_2.conv2.bias f4 [32]
0.000102854945 0.00014555769 0.00046285297 -5.278182e-05 -4.474356e-05 0.0002561734 -7.6653894e-05 0.00018795289
-7.867242e-05 -7.3790834e-06 -0.00020389879 -2.0360156e-05 -3.111064e-05 0.0001309549 0.00012791218 -0.00055046024
-8.034652e-05 -0.00043134237 -0.00052240764 -0.00053207506 2.398614e-05 0.00048758712 0.0006530533 -0.00033358004
-0.00014836804 -9.437429e-05 6.7737084e-05 2.2266197e-05 -0.0002773511 3.585321e-05 -6.169118e-05 -0.0004387863
00000000: d4b3 d738 d8a0 1839 13ab f239 0c62 5db8
00000010: 08ab 3bb8 034f 8639 3fc1 a0b8 3815 4539
00000020: effc a4b8 d899 f7b6 aacd 55b9 1acb aab7
00000030: cc7c 02b8 f050 0939 2a20 0639 c34c 10ba
00000040: b67f a8b8 cb25 e2b9 2ff2 08ba f47a 0bba
00000050: d835 c937 d6a2 ff39 aa31 2b3a 5be4 aeb9
00000060: 3e93 1bb9 d0ea c5b8 120e 8e38 4bc8 ba37
00000070: 6f69 91b9 1761 1638 3360 81b8 e60c e6b9

combined_block_2.bn1.weight f4 [32]
1.0183878 1.0447147 1.031203 1.0591403 0.9397223 0.9667452 1.0661627 1.037079
1.0532359 0.9723238 1.0089865 0.9983085 0.98075444 0.92753166 1.0246173 1.0160604
1.0102067 0.7878304 1.0492119 1.0149473 0.8337914 0.9743856 0.73969483 1.033909
1.0259498 0.90786433 0.8324448 1.037964 0.81500626 0.8624727 1.1106188 1.0377225
00000000: 885a 823f 36b9 853f 76fe 833f e991 873f
00000010: a491 703f 9d7c 773f 0578 883f 01bf 843f
00000020: 6fd0 863f 36ea 783f 7826 813f 2591 7f3f
00000030: b912 7b3f b772 6d3f a926 833f 440e 823f
00000040: 744e 813f 41af 493f 934c 863f cbe9 813f
00000050: 5a73 553f 5671 793f a45c 3d3f 2157 843f
00000060: 5352 833f cc69 683f 1a1b 553f 01dc 843f
00000070: 40a4 503f 03cb 5c3f c228 8e3f 17d4 843f

combined_block_2.bn1.bias f4 [32]
-0.1628631 -0.34247229 -0.3492301 -0.28777727 -0.18245755 -0.11056587 -0.2571439 -0.37453148
-0.34084466 -0.25969344 -0.3014984 -0.25179076 -0.28007495 -0.49031267 -0.36686495 -0.051104255
-0.44055012 -0.27312142 -0.21274862 -0.32646105 -0.3307419 -0.38703164 -0.36599246 -0.38336456
-0.21482396 -0.20078154 -0.085505165 -0.4734738 -0.48724404 -0.22019261 -0.46839654 -0.2661436
00000000: 96c5 26be 8758 afbe 4ace b2be 8b57 93be
00000010: 27d6 3abe 5c70 e2bd 5ea8 83be 97c2 bfbe
00000020: 3183 aebe 8af6 84be 005e 9abe b8ea 80be
00000030: fc65 8fbe 430a fbbe b9d5 bbbe b252 51bd
00000040: c98f e1be 92d6 8bbe c6da 59be e725 a7be
00000050: 0157 a9be 0329 c6be 5d63 bbbe 5c48 c4be
00000060: d0fa 5bbe ad99 4dbe 551d afbd 286b f2be
00000070: 0d78 f9be 2c7a 61be acd1 efbe f943 88be

combined_block_2.bn1.running_mean f4 [32]
-2.1861887 -0.66767764 -0.963856 -0.5709546 -0.6847744 -0.60890526 -0.7187765 0.60282683
-0.5707463 -0.9864879 -0.19226165 -1.0479803 0.23461826 0.36395478 -0.8979624 -1.3906798
-1.1792109 -0.10467732 -0.47589597 -1.1315905 -1.659534 -0.66494954 0.42837337 -0.44413844
-0.35005578 -0.54519796 0.26426157 -0.18090019 0.16160464 -0.4623515 -0.24704288 0.15596329
00000000: 84ea 0bc0 ecec 2abf 44bf 76bf 152a 12bf
00000010: 604d 2fbf 37e1 1bbf bd01 38bf dc52 1a3f
00000020: 6e1c 12bf 798a 7cbf 3de0 44be 3824 86bf
00000030: c53f 703e 4858 ba3e dde0 65bf cc01 b2bf
00000040: 62f0 96bf 1061 d6bd a3a8 f3be f5d7 90bf
00000050: 9c6b d4bf 223a 2abf c153 db3e 1d66 e3be
00000060: 833a b3be 1892 0bbf 4b4d 873e e63d 39be
00000070: b07b 253e 56b9 ecbe cff8 7cbe d7b4 1f3e

combined_block_2.bn1.running_var f4 [32]
2.5543537 1.634616 1.2225442 1.7401652 1.4852482 1.509717 1.6159736 1.6343398
1.8157209 1.9548191 1.4576068 1.8402045 1.5241995 1.2452639 1.5111046 1.5152733
1.2409539 1.4223272 1.7472732 1.766495 2.2887335 1.111557 1.339317 1.5817525
1.4501957 1.7554749 1.4268088 1.3465734 1.4433163 1.2164117 1.448913 1.9824718
00000000: 887a 2340 193b d13f 547c 9c3f bcbd de3f
00000010: 9d1c be3f 683e c13f 39d8 ce3f 0c32 d13f
00000020: 8b69 e83f 8337 fa3f dc92 ba3f d28b eb3f
00000030: f818 c33f cf64 9f3f e06b c13f 7af4 c13f
00000040: 94d7 9e3f d10e b63f a6a6 df3f 821c e23f
00000050: 9c7a 1240 8047 8e3f bd6e ab3f de76 ca3f
00000060: 03a0 b93f 67b3 e03f aca1 b63f 845c ac3f
00000070: 97be b83f 61b3 9b3f fb75 b93f a3c1 fd3f

combined_block_2.bn2.weight f4 [32]
1.2289872 1.1156782 1.0920304 0.9524988 0.9957621 1.0120065 0.9494228 0.9981321
0.9541158 1.1657046 1.0937482 1.1417657 0.92222553 1.2075706 1.3098403 0.9047178
0.9485322 1.1087935 1.01887 1.3727983 1.0440346 0.9901517 1.6450944 0.8681708
0.91397434 1.0017967 0.9082356 0.9594698 1.0739918 0.8483423 1.0011992 1.0440983
00000000: 744f 9d3f 8bce 8e3f a7c7 8b3f f6d6 733f
00000010: 44ea 7e3f 6e89 813f 5f0d 733f 9685 7f3f
00000020: ef40 743f cf35 953f f1ff 8b3f 6125 923f
00000030: f916 6c3f ac91 9a3f d9a8 a73f 969b 673f
00000040: 02d3 723f f2ec 8d3f 556a 823f dbb7 af3f
00000050: eda2 853f 957a 7d3f 7492 d23f 7140 5e3f
00000060: 39fa 693f e03a 803f 2182 683f d09f 753f
00000070: 9078 893f f62c 593f 4c27 803f 03a5 853f

combined_block_2.bn2.bias f4 [32]
-0.38494828 -0.52002215 -0.33009267 -0.38552627 -0.48497382 -0.4868862 -0.23240025 -0.22093186
-0.3723129 -0.51097476 -0.46231273 -0.5157875 -0.45797604 -0.39484847 -0.48439637 -0.4642665
-0.5510968 -0.28438306 -0.5984793 -0.6184009 -0.57032675 -0.4697479 -0.70481443 -0.44042218
-0.5464947 -0.5483864 -0.48220336 -0.54471916 -0.34949207 -0.47053677 -0.1621469 -0.21055174
00000000: f117 c5be 2c20 05bf e801 a9be b363 c5be
00000010: 7d4e f8be 2649 f9be 55fa 6dbe f63b 62be
00000020: cc9f bebe 3ecf 02bf 41b4 ecbe a60a 04bf
00000030: d67b eabe 9429 cabe cd02 f8be 57b4 edbe
00000040: ae14 0dbf a89a 91be f035 19bf 854f 1ebf
00000050: ef00 12bf cc82 f0be b86e 34bf 047f e1be
00000060: 14e7 0bbf 0d63 0cbf 5ce3 f6be b772 0bbf
00000070: a0f0 b2be 32ea f0be d609 26be e09a 57be

combined_block_2.bn2.running_mean f4 [32]
-0.75227207 -0.41281563 -0.17368804 0.65690917 1.0829656 -0.38932794 -0.98673135 -0.4786104
-0.5714113 0.39217117 -0.6039804 0.0503934 -0.7137455 -0.13366379 -1.2677624 0.9102955
-0.9150627 -0.8120321 -0.45163035 -0.5586912 -0.5901763 0.65418947 -0.7497968 -1.0987619
0.34188047 0.6028122 0.48246714 1.4842142 0.23480803 0.29375508 -2.0832381 -0.6752764
00000000: e794 40bf 925c d3be 47db 31be 332b 283f
00000010: 9e9e 8a3f fe55 c7be 6d9a 7cbf 6c0c f5be
00000020: 0348 12bf a9ca c83e 769e 1abf 4f69 4e3d
00000030: 06b8 36bf 29df 08be 0a46 a2bf 2009 693f
00000040: 8d41 6abf 56e1 4fbf 183c e7be 6306 0fbf
00000050: cb15 17bf f678 273f aff2 3fbf 3ba4 8cbf
00000060: f50a af3e e651 1a3f ef05 f73e bbfa bd3f
00000070: 8471 703e 1167 963e c653 05c0 eade 2cbf

combined_block_2.bn2.running_var f4 [32]
2.688893 1.8393254 3.2462077 3.4025931 2.6683905 2.400384 2.2496965 2.4167736
2.2084577 2.538402 2.985348 2.7954187 2.2033165 3.0664845 3.0108619 2.403421
1.9087976 2.923984 2.1311212 2.8081262 2.9969094 2.6612315 3.3131425 2.5817504
2.303098 2.0551004 1.964896 2.784278 2.7128754 2.1035018 2.846047 3.0423403
00000000: d316 2c40 046f eb3f dec1 4f40 16c4 5940
00000010: e9c6 2a40 e49f 1940 07fb 0f40 6bac 1a40
00000020: 5f57 0d40 2e75 2240 f10f 3f40 24e8 3240
00000030: 2303 0d40 4841 4440 f6b1 4040 a6d1 1940
00000040: 7b53 f43f 8e22 3b40 4a64 0840 57b8 3340
00000050: 5dcd 3f40 9e51 2a40 870a 5440 663b 2540
00000060: f565 1340 c486 0340 b681 fb3f 9c31 3240
00000070: c09f 2d40 c69f 0640 a225 3640 b4b5 4240
